models/en/tokenize/ewt.pt (torch_old, 630886 bytes, 23 tensors)

embeddings.weight f4 [111, 32]
00000000: 502b 4fbe 8b25 903f b94d 373f 4026 a6bf
00000010: 09d8 c83f f816 923e 2063 f33e 2865 c93f
00000020: 25be 593f 9924 a63f 51d9 873e 7044 b13f
00000030: 7b82 14bf 075e 843f dd33 e7bf ae1e 98be
00000040: 5afe 97bf f0bc 90be 9a37 91bf bb44 243f
00000050: 65ae 613f c212 bd3f 9e38 6f3f c57c 6dbf
00000060: 6087 5ebf 5a70 86bf ca6f 96be 18de aabf
00000070: a274 193f fe70 e13f 414f 6d3f 58bb e9be
00000080: 5dbc afb9 810f e4bc 9349 de3b 639a 66bd
00000090: b2cd 14bb bd72 e83c ce99 53bd 4fa4 043d
000000a0: 7451 b63c 0785 b73c 98c3 4abb 087d 363b
000000b0: 563b 07bc 6a5c a0bc e8f1 98bc 3517 9d3c
000000c0: c151 5a3d 812d 25bb a26d a0bd ec98 39bc
000000d0: 417e 0cbd 06d7 a13b 68bf eabc 42ac 203c
000000e0: 909b 0f3d f47f a23d 96d1 8c3d e8a2 aebc
000000f0: a754 153d 05d3 a2bd 6ca8 a0bd 3607 f63c
00000100: 843e 8e3d 93ed 34ba 003f 283d 3bba 6cbd
00000110: d381 53bc 6fa6 b63c d2fa 8ebc 05e8 2ebc
00000120: 7818 b63c 5063 fc3c 3d0f 3dbb 236c aa3d
00000130: 3eb6 c4bc f4f0 ddbc b136 b5bc 6484 453d
00000140: 2049 ac3c 40a2 99bc 2e92 babd 6f3a b4bc
00000150: ccc3 9bbd 8c17 453d 51d1 7cbc 286d c63c
00000160: 8943 a33d cab1 803d 719e 2e3d 9c23 1e3c
00000170: 417a 433d 132a 94bb c57e e6bc 5755 083c
00000180: bc8f c03b 5b04 e63e 51af eabe c5fc 9cbe
00000190: 7779 373d 9d9f 8a3e be34 42be d0e4 6bbe
000001a0: 78eb 08bf a5e8 f4bd cfc7 6abf c3e7 063e
000001b0: a44e 293e 0b54 9d3e 46c3 423c 99a3 c2bc
000001c0: d4eb d53e 859f e83d d767 843f a68a 863f
000001d0: 0588 02bd 5bfb b7be 5c5f 553f 31fc cd3e
000001e0: 8131 223c 0e6c e2be a680 65be e1f9 0c3f
000001f0: 8a9d a73e 0c57 44be 534e af3e 2349 283c
00000200: 280f 95be 0e67 fc3b 84d2 78bf 4da3 bb3e
00000210: df1f 153f 7d98 363e cc99 f1bd faf5 58bf
00000220: 46cc a2bf cc15 203d 22e4 8dbe d60c 3bbf
00000230: 07c0 363f e1e6 a9bd a847 053f bb8e c43e
00000240: 6f28 1a3e b434 3f3f f3bb 8f3e 0c51 3fbf
00000250: 2689 10bf 27eb 0abf 4d2d 6a3f 268e 4d3f
00000260: 957e 80bf e254 86bc 6cc7 ea3e a544 8abf
00000270: 5ce1 0cbf 46e9 14bf 8788 3fbe e7d8 c1bf
00000280: 91f9 59bb 0988 cbbe 59ac 98bf ff2f 863f
00000290: ede6 a93e 3358 15be 7c7d 9ebe 845c 0a3f
000002a0: 98f0 93bf 1934 11bf 272f 0e3f a242 383e
000002b0: 4629 2f3e abed 0a3d 408a 9abe f5e6 d8be
000002c0: 9142 113e 9366 583d 113b e9be a72d 0a3d
000002d0: bf1b 313f 4db2 29bf 1cd1 cebd e683 573e
000002e0: 453c 353f f406 ab3d 0793 d4be 0e06 303f
000002f0: 742b cbbe 1e1e 833f a3bb 50bf c6e3 323f
00000300: 201c 1bbf 76db 703e b570 87bd f1c3 6a3f
00000310: 17ba 6d3f d2e1 bc3e cdf0 193e 4f73 2abf
00000320: 99ad 97bc d174 c4bd b924 af3f 314f d9be
00000330: d379 9ebe f19a 56bf 2636 8fbe bf04 41bf
00000340: 69e2 8b3c 3f30 183e 8cf2 33bf 6771 323e
00000350: 4836 47be 0dd4 e33d 3df0 41bc 924d b33e
00000360: 8c0d e13d 16dd 28bf 5075 e83e 7c58 0fbf
00000370: d519 f33e 2aa1 7c3f 457b 513e 8fe8 25be
00000380: 8358 483e d1c6 80bd 290b a13d 002e d73f
00000390: 9125 2c3e 0eb7 3a3d 785a 343f 6e5e f1be
000003a0: dd65 fc3c dfac 8abf 9330 17bf e2b2 4f3e
000003b0: f607 70bd c4ad 2a3d 98bf 83be 8a97 85bd
000003c0: a04e 2ebe 59e1 be3e 03a8 b9bd 5dd7 4e3e
000003d0: 90f4 023e 8765 373d 9ba6 b9be 7f82 e8be
000003e0: 0aaf 34be 56ce 55be 932a 1bbf 96e3 db3d
000003f0: f80e 0dbf 1a9a 3fbe 3b82 2b3f ec96 8bbe
-0.20231366 1.1261457 0.7160297 -1.2980423 1.5690929 0.2853315 0.47536564 1.5733995
0.8505576 1.2979919 0.26532987 1.384901 -0.580116 1.0341195 -1.8062702 -0.29710907
-1.1874497 -0.28269148 -1.1345093 0.64167374 0.8815673 1.477135 0.93445766 -0.9276851
-0.86925316 -1.0503037 -0.29382163 -1.3349028 0.5994359 1.7612607 0.92699057 -0.45650744
-0.00033518943 -0.027839424 0.006783673 -0.05629958 -0.0022705612 0.028375024 -0.05166035 0.03238326
0.022255637 0.0224023 -0.0030939337 0.002784552 -0.008253893 -0.019575316 -0.018670037 0.019176105
0.053300623 -0.0025204124 -0.07833411 -0.011327963 -0.034300093 0.004938963 -0.028655723 0.009806694
0.035060465 0.07934561 0.06875913 -0.021317914 0.036457684 -0.07950405 -0.07844624 0.030032735
0.06945518 -0.00069018564 0.041075706 -0.05779479 -0.0129093705 0.022296159 -0.017453585 -0.010675435
0.022228464 0.030809075 -0.0028848194 0.08321407 -0.024012681 -0.027092434 -0.022120805 0.04822196
0.021030962 -0.018754125 -0.09109913 -0.02200052 -0.07605705 0.04811816 -0.015430764 0.024221972
0.07971866 0.062839106 0.04263157 0.009652045 0.047724012 -0.004521617 -0.02813662 0.008321128
0.0058765095 0.44925198 -0.4583688 -0.30661598 0.044793572 0.270749 -0.18965432 -0.23036504
-0.53484297 -0.11958436 -0.91711134 0.13174348 0.16533905 0.30728182 0.011887377 -0.02375965
0.41781485 0.11358551 1.034419 1.0511062 -0.031868 -0.35933957 0.8334863 0.4023147
0.009899498 -0.44223064 -0.22412357 0.55068785 0.3273738 -0.19173831 0.34239444 0.010271343
-0.29113126 0.0077027148 -0.9719622 0.36648026 0.58251756 0.17831607 -0.117969126 -0.8475033
-1.2718589 0.039083287 -0.27713114 -0.7306646 0.7138676 -0.0829599 0.52062464 0.38390145
0.15054487 0.74689794 0.2807308 -0.7473304 -0.5645927 -0.54265064 0.91475374 0.80295026
-1.003863 -0.016397897 0.45855272 -1.0802199 -0.5503137 -0.58168447 -0.18704425 -1.5144318
-0.0033260325 -0.39752224 -1.1927596 1.0483397 0.33183995 -0.14584427 -0.30955112 0.5404742
-1.1557798 -0.5672012 0.555407 0.17994168 0.17105588 0.033918064 -0.301836 -0.42363706
0.1418555 0.052832197 -0.45552877 0.033734944 0.6918296 -0.6628769 -0.10098478 0.21046409
0.7079509 0.083509356 -0.41518423 0.6875924 -0.3968159 1.0243566 -0.8153631 0.69878805
-0.6058979 0.23521218 -0.06613294 0.9170523 0.92862076 0.36891037 0.15033264 -0.66582197
-0.018515395 -0.095925935 1.3683082 -0.4244323 -0.3095232 -0.8383017 -0.27971 -0.75397867
0.017075734 0.14862154 -0.7029197 0.17426072 -0.194543 0.1112443 -0.011837062 0.3502012
0.10988912 -0.6596235 0.45402002 -0.5599439 0.47480646 0.98683417 0.2045718 -0.16201995
0.19565015 -0.06287921 0.07863457 1.6810913 0.16811205 0.04558473 0.70450544 -0.47142357
0.030810291 -1.0834006 -0.59058493 0.20283082 -0.058601342 0.041669622 -0.25732112 -0.065230444
-0.1702218 0.37281302 -0.09065249 0.20199342 0.12788606 0.04477456 -0.36259922 -0.4541206
-0.17644897 -0.20879492 -0.6061184 0.10736768 -0.55100965 -0.18711129 0.6699559 -0.27263582

rnn.weight_ih_l0 f4 [256, 36]
00000000: 64c5 2ebd d637 643e dfdc cf3e 99cc d4be
00000010: c0b8 0cbf 84d7 e3be 47a5 1a3e 57f0 a7be
00000020: e289 94bd a491 92bd c40d 8dbc 088c 85be
00000030: 0970 8abe 7a3e 953e e7bf 513e 1f1d bc3c
00000040: eca3 75be 2d94 30be 143d 583d 1850 62bd
00000050: 67d5 73be 281a 64be 0a7c 5f3e 8746 3ebf
00000060: 7109 bb3e 7545 7b3e 62c4 0fbf a1d6 9cbe
00000070: a7b5 84bd 662e 0bbe e4a4 8e3e 9629 0dbd
00000080: 437c ed3d 87bb 8b3f 244e 933f ca6c 933f
00000090: e5ec d73d c1c1 983e 39f0 ebbd 27f3 62bd
000000a0: ddf0 693e f5ea 38bd c21d 74bd 26fb 1ebe
000000b0: a9df ca3c e5b2 cebd 0a3f 5cbe baf7 3abe
000000c0: 48c1 053e 3f9f 40be 8cbc c3bd b897 863e
000000d0: 5f72 0f3e a4f8 0e3d 7b4c 083e 40cf c4bd
000000e0: 5bb5 6fbe f8cb 6cbd 0af1 833e 60b9 283e
000000f0: 8239 98bc dbda 5c3d f136 99be 6994 3fbe
00000100: cc07 e2bd 03aa b4bd be17 b23d 36b7 54be
00000110: 0268 2e3f 30d5 71bf 4324 72bf e260 283f
00000120: 3789 c93e 1047 17be db6c 9d3e cc1f 143d
00000130: a349 16be c42b 5ebe 7be1 0cbf 7e6c d93d
00000140: be09 343e cc64 173f 32c4 f13d 09d8 283e
00000150: 1f69 01bf e20e a9bc da12 5abd 9fe1 063e
00000160: 7030 54bd 3145 cc3d 1cb3 953c c18d 083c
00000170: f473 25be 3e0f 79be 14b5 8c3e 36bd 963c
00000180: 4fa1 203e 42cd 6b3e 17cf a1bd c306 fd3c
00000190: 0ba8 0bbe 494e 43be 2046 c63e 6c97 ec3e
000001a0: 4f34 073f 0068 17bf dde3 42bf ac3f 293e
000001b0: aff4 89bd 7a8a 923d acfd de3e e107 1e3e
000001c0: 1821 b33d 79b6 8abe 28c9 443e 8f54 203d
000001d0: 95a8 4a3e aab2 8ebe 24d9 42be 5c9c ef3d
000001e0: 8c57 cc3d dfe0 8cbe fa1d d5bd b054 443e
000001f0: 1e78 563e abcf 81bd 8e38 7bbe 2087 353e
00000200: 241a a83d edbb 863e 2434 113d 8e9f 5cbe
00000210: 4bde 973d 3a88 a5be 8eb5 283e 6851 1c3d
00000220: bbe7 dfbc 648a 493d 211d 95bb 969a 7f3e
00000230: eb5a 9dbf 4af5 51bf 859c 37bf ed99 31bf
00000240: 0220 adbd dbcf d33e 3d54 79bf 1297 aa3e
00000250: c46e f73e 346f fbbe 504e 113f a662 dfbe
00000260: b75d 60bf c75f efbd d08d b13e 52d3 ab3c
00000270: 9403 3f3f b10d c1be c30c 123f 55c2 9b3c
00000280: d164 4abf 5443 3b3f 56e3 573e b1be 003e
00000290: d27e 803e 7fe7 e5bb c097 453f 1a0e 06bf
000002a0: 267e b23d b060 c3be 312e 3abd 5265 be3d
000002b0: a37e 4e3e b490 483f cc06 fc3e d94b e33b
000002c0: d32f 02c0 8d18 04bf 3f2a 12bf ea5c fbbe
000002d0: a417 4f3d 35f8 453c a19e 1f3e 6261 c4bd
000002e0: 06d4 ec3d 84bc f73e 0c89 d23d 83cb 10bf
000002f0: a014 583b d63e 333e 145f d23d f0c8 8f3e
00000300: 00ba 49be f9fd 313f 7c83 a83d e533 c43e
00000310: c37b 0e3e 2578 013f 222e ae3e 4d54 ad3e
00000320: e84b febd edc9 a53e 3e5b 76bd 85e5 a23e
00000330: e6b6 e9be fcc7 f2be f948 64be 42af 17be
00000340: aa36 9b3e 5917 973d 771a 193f 0e59 063e
00000350: 6374 8c3e 99f4 463e 04a1 803d 768e b5bf
00000360: 2acc 94bd 8c59 07bd bec7 023f 2a18 3a3e
00000370: 620f 9a3d a89a 103e 1f2f 05be 33e1 8b3e
00000380: da69 043e c26d 06bd 354f c53e f9bd 4b3e
00000390: c361 c9be df76 c53e 03d2 acbe 0c5b 42bd
000003a0: 54f7 493e 39ea 5bbe de74 9e3d a6eb 9e3c
000003b0: 0bbe 03bd 5625 893d ca66 bdbd 705c 3e3e
000003c0: 6779 e63c b1de edbd 3ee9 24be 9ba2 87bc
000003d0: 05e6 163d 52ac 7c3e 9d3d 093e 4e31 983e
000003e0: 8e4f 50bf 1af3 35bf 9c02 2cbf 3a79 8fbf
000003f0: bbef eb3a 588f d63d 124a 713d 96f0 50be
-0.042668715 0.22286925 0.405982 -0.41562346 -0.54969406 -0.44500363 0.15102111 -0.32800552
-0.072528616 -0.07156685 -0.017218478 -0.26083398 -0.270386 0.29149228 0.20483361 0.022963105
-0.23988312 -0.17244025 0.052792624 -0.055252165 -0.23811875 -0.22275603 0.21824661 -0.74326366
0.3653064 0.24538215 -0.5615903 -0.306325 -0.0647996 -0.13591918 0.27860177 -0.034463488
0.11595967 1.0916604 1.1508222 1.1517575 0.10543231 0.29835322 -0.11520428 -0.05540767
0.22845788 -0.045145947 -0.05959869 -0.15525493 0.024764853 -0.10092715 -0.21508422 -0.18258563
0.13062012 -0.18810748 -0.09557447 0.26287627 0.14008473 0.03490509 0.13310425 -0.09609842
-0.23409025 -0.057811707 0.25769836 0.16476965 -0.01858211 0.053919654 -0.2992473 -0.18708958
-0.110366434 -0.0882149 0.08695935 -0.20773014 0.68127453 -0.94465923 -0.9458658 0.6577283
0.393625 -0.14773202 0.30747113 0.036163136 -0.14676528 -0.21696383 -0.55031556 0.10616396
0.17581841 0.5913818 0.118049994 0.16488661 -0.5055103 -0.02063698 -0.053240635 0.13172005
-0.051804006 0.09974135 0.018273883 0.008334578 -0.16157514 -0.2432222 0.27481902 0.01840077
0.15686534 0.23027518 -0.079008274 0.030887013 -0.13638322 -0.19072832 0.38725376 0.46209276
0.5281419 -0.59143066 -0.7612894 0.16528195 -0.06736123 0.071553186 0.4355291 0.15432693
0.087465465 -0.2709234 0.1921736 0.03914314 0.19790871 -0.27870685 -0.19028145 0.11699745
0.09977636 -0.27515313 -0.10406108 0.1917293 0.20944259 -0.06338438 -0.24533293 0.17727327
0.08208111 0.2631525 0.035450116 -0.2154524 0.07415446 -0.32330495 0.16475508 0.038163573
-0.027332177 0.049204245 -0.0045505916 0.24961314 -1.2293371 -0.82014906 -0.71723205 -0.693755
-0.08453371 0.4136952 -0.9739416 0.33318383 0.48326695 -0.4910828 0.5676012 -0.4362995
-0.87643 -0.1168819 0.34678507 0.020974789 0.74614835 -0.37705758 0.5705072 0.019013563
-0.79060084 0.7314961 0.21082816 0.12572743 0.25096756 -0.007016122 0.7718468 -0.5236527
0.08715467 -0.38159704 -0.045454208 0.09296669 0.20165496 0.783458 0.49223936 0.006936532
-2.034169 -0.5159996 -0.5709571 -0.49094325 0.050559655 0.012083103 0.15587856 -0.09588887
0.11563878 0.48386014 0.10280046 -0.56560534 0.0032971278 0.17504439 0.10272041 0.2808299
-0.1969986 0.69528157 0.08228204 0.38320842 0.13914399 0.5057395 0.34019572 0.3385338
-0.12416822 0.3238062 -0.06014561 0.31815735 -0.45647353 -0.474182 -0.22293462 -0.1481295
0.30315143 0.073775 0.5980601 0.13119909 0.27432546 0.19429244 0.06280711 -1.4184101
-0.07265504 -0.033044383 0.5108603 0.1817328 0.07522465 0.14121497 -0.13006257 0.2732025
0.12931004 -0.032819517 0.38536993 0.19896688 -0.393324 0.38567254 -0.33753976 -0.04745011
0.19723254 -0.21476068 0.077371344 0.019399475 -0.03216366 0.066965744 -0.09248121 0.1858995
0.028134061 -0.11614741 -0.161046 -0.016557029 0.036840457 0.2467511 0.1340241 0.29725116
-0.8137139 -0.7107407 -0.6719148 -1.120887 0.0018000522 0.104765594 0.05890853 -0.20404276

rnn.weight_hh_l0 f4 [256, 64]
00000000: d590 27be d3e1 52be 1841 51be 971e 82bf
00000010: abd6 d0bd 1d39 d33c d070 ecbe 101f d83d
00000020: ad21 a8be 3e1a 1bbd 65bd 49be d86b 19bf
00000030: 35ad b4be 4460 c33e 7e98 083d c7e9 b3be
00000040: 7dce 54be 4832 9cbe 3d2c 36be 9c64 0ebf
00000050: 9baf 353e 6b5b ebbd ae15 bf3d 4824 cfbd
00000060: 22a9 213f 79e6 5dbe 1924 d53b e0ff 6bbe
00000070: 8d25 d13e a06f e03c 658e 09be 0770 ef3d
00000080: cf52 cb3b 4033 1c3e 95ba 6cbf 5361 49bd
00000090: 1694 e9be fbb7 b5be 13f4 69bf 8002 54bd
000000a0: 90f7 0f3f b60e 4fbd 5cf2 383e 8f90 773e
000000b0: eeb9 57be 4a7f 0abf c2dc c7be 1a48 883d
000000c0: 73a9 8e3e 710d c9be 230e 893e d35d df3e
000000d0: 996d 01be 73ca 363e 6c54 13be 185e b73c
000000e0: 3f7b ed3d 0519 37be ab88 1b3f 20a0 b3bd
000000f0: 8a00 a8bd 366c 0cbf 60f9 d23e 545c c03e
00000100: a18c 2ebf 4e7f 33be 2b1b 40bf 7267 2b3f
00000110: 3c5d 46be b535 f63d 8e2e ffbc 0597 a5be
00000120: e308 07bf eb0b 9ebd dd8d 36bf f168 0d3d
00000130: 9505 8bbf 21d5 483f 3a2d 19be 3951 1dbf
00000140: d2d7 f83e 1ca0 16bf d3db 22be a29f 73be
00000150: 54ec 913e 0142 08be 2426 5d3e 2df5 6abe
00000160: 7b9c 213e 681e 57be 518d 99bd 9c29 1f3f
00000170: 1232 49be 0337 fcbd 25a0 1dbf 2eae 7cbf
00000180: e541 653e 071e 283f 72c9 a93e b9d0 473d
00000190: 7e1e 24be 6eb3 a2be 959e fcbe 7da3 343e
000001a0: a510 23bd fe44 0abf a483 e1be 37d5 8d3d
000001b0: b40a d03e 702b 0ebf baa3 ff3e 780d 94be
000001c0: 94aa 51bf ba12 14bf 3f67 053f 1559 4f3e
000001d0: 6835 013c b737 ff3d 9407 8f3d 0cf0 5f3f
000001e0: bc65 f23e 8ee4 263d 94a1 c03e 3841 433d
000001f0: 1893 cfbe a9a9 40bf 55a9 333e 5c47 57be
00000200: e6a5 c4bd c781 b4bc 8d20 0c3e cc11 b5be
00000210: 20b3 8f3f 9b69 febe 9c02 77be 369b 71be
00000220: 7dd1 033d 07cf 5bbf e26e 4d3f c86d 61bf
00000230: ee56 6d3d 5c0a bbbe d04c 3e3d 5046 b9be
00000240: 37c2 0ebd e6e0 84be a05c 973e fb1d 983e
00000250: 3b56 abbe 02a2 40bf fd88 2e3d 77ad 7a3f
00000260: 25da 723e 4fa6 10bf 4500 f13e d1a7 d5be
00000270: 62be 8d3e 2928 043e d3cb 5f3e 4ae6 ba3e
00000280: b2dd 2abe 12bc c43f 76d1 aebd 517d d9be
00000290: d6ad 093d f7ce c93e cea0 5e3d 097b 883d
000002a0: 59e0 b4bd 9b8d 743e be45 7f3f 344f e33d
000002b0: 5815 30bd c85f 473e dad6 5dbe e101 d83c
000002c0: 7e62 b73d c7d0 1dbe 7750 6f3f 6e77 f6be
000002d0: 4e51 9bbe b99a 3a3f bb2e 563f 384c 273e
000002e0: 0653 8c3c f0c0 ee3e 3c09 05bd 30f6 21be
000002f0: ab2c cabe 5d4b 103f 0476 8fbe e3c7 423d
00000300: 36be 2fbd c162 223f b254 3a3e df5d 32be
00000310: a73f eb3e 8f3f 843e 7142 52be 3551 463e
00000320: fae1 923c f236 823f e971 cc3e 71cb 3a3f
00000330: 9a62 033e 546a 513e 4fd3 b1be 43aa 56bf
00000340: 8c4f b53e cf0f f2be 9f22 f9be 9c06 d6bc
00000350: 01c5 3fbf 4c51 033e 1ed0 63bf 5ac8 443f
00000360: c777 fbbe 343c 023e adcb 7b3e 42eb 0abd
00000370: 46ed f6be d5fe 5dbe 92f8 0d3e a24d a7be
00000380: bf71 b2bd 7b54 823e 6bbe 7e3f f349 183f
00000390: 32ba 103f d002 ef3b be6f 17be 1981 8cbc
000003a0: 9244 2a3d 755a 153e b0da 4c3d aa12 613e
000003b0: de1e 30bf 682f 003f d6d0 4a3f b13f c23e
000003c0: 81cf 2cbd 36a8 983e c0c4 60be 3be6 ebbe
000003d0: 4cb4 2c3e 064b 0ebf 9043 403e b05a 533e
000003e0: c410 9dbb f63d 443f 51a3 93be 0b14 c5bd
000003f0: bf19 f0be 46c0 fe3e 5a82 1f3f 43e9 1ebf
-0.16363843 -0.20593958 -0.20434988 -1.0165585 -0.10197195 0.02578407 -0.4617982 0.105528
-0.32838193 -0.037866823 -0.19701155 -0.5993018 -0.35288396 0.38159382 0.033348553 -0.35139295
-0.20781894 -0.30507112 -0.17790313 -0.5562227 0.1774277 -0.11492046 0.09330307 -0.10114342
0.631487 -0.2166995 0.0065045473 -0.23046827 0.4084896 0.027396977 -0.13433225 0.116912894
0.00620494 0.15253925 -0.924722 -0.04916508 -0.45620793 -0.35491928 -0.9138805 -0.051760197
0.56237125 -0.05055114 0.18061203 0.24176238 -0.2106702 -0.5410048 -0.39035612 0.06654377
0.27863654 -0.39268067 0.26768598 0.4362627 -0.12639464 0.17850666 -0.14387673 0.022383735
0.11595773 -0.17880638 0.60755414 -0.08770776 -0.08203228 -0.54852617 0.41205883 0.3757044
-0.6818333 -0.17529032 -0.75041455 0.6695472 -0.19371504 0.120219626 -0.031150129 -0.3234178
-0.52747935 -0.07717117 -0.71310216 0.034523908 -1.0861079 0.7845021 -0.14958659 -0.6145206
0.48602158 -0.5883806 -0.15904169 -0.23791364 0.28500617 -0.13306428 0.2159658 -0.2294509
0.15782349 -0.21007693 -0.07497657 0.62172866 -0.19648007 -0.1231518 -0.61572486 -0.9870328
0.22388418 0.6567082 0.33161503 0.048783038 -0.16027257 -0.3177752 -0.49339738 0.17640491
-0.039810795 -0.54011524 -0.44045746 0.06925433 0.40633166 -0.5553503 0.499296 -0.28916526
-0.81900907 -0.57841074 0.52110666 0.20248826 0.007886268 0.12461799 0.06983867 0.8747566
0.47343242 0.04074531 0.37623274 0.04766962 -0.4054191 -0.7525888 0.17545064 -0.21023315
-0.09601955 -0.022034539 0.13684292 -0.3536514 1.122654 -0.49689946 -0.24122089 -0.23594365
0.032182205 -0.85862774 0.8024732 -0.8805814 0.05794423 -0.3653134 0.046459973 -0.36186457
-0.034853186 -0.25952834 0.29562855 0.29710373 -0.33464226 -0.75247204 0.04261111 0.97920936
0.23716028 -0.56503767 0.47070518 -0.41729596 0.27684313 0.12905945 0.21855097 0.36503822
-0.16686133 1.5369895 -0.08536045 -0.4247842 0.03361305 0.39415714 0.054352574 0.06664092
-0.088318534 0.23882143 0.99715793 0.11099091 -0.042989105 0.19470131 -0.2166399 0.026368083
0.08954333 -0.15411673 0.93482155 -0.48137993 -0.30335468 0.7289234 0.83665055 0.16337669
0.017129432 0.46631575 -0.03247951 -0.1581657 -0.39487204 0.56364995 -0.28019726 0.047553908
-0.04290601 0.63431937 0.18196371 -0.17418621 0.45947 0.2582974 -0.20533158 0.19366916
0.01793002 1.0173018 0.39930657 0.72966677 0.12830582 0.20450717 -0.34731528 -0.8385355
0.35412252 -0.47277686 -0.48659226 -0.026126198 -0.7490998 0.12823981 -0.88989437 0.7686821
-0.4911482 0.12718278 0.24589415 -0.033915766 -0.482279 -0.21679242 0.13864353 -0.32676417
-0.087131016 0.25455078 0.99509305 0.5948784 0.5653411 0.0072940364 -0.1478872 -0.017151402
0.0415693 0.14585288 0.050013244 0.21979776 -0.687971 0.50072336 0.7922491 0.37939218
-0.04219008 0.29815835 -0.21950054 -0.4607409 0.16865653 -0.55583227 0.18775773 0.20640063
-0.0047932584 0.76657045 -0.28835538 -0.096229635 -0.46894643 0.49756068 0.62308276 -0.6207468

rnn.bias_ih_l0 f4 [256]
00000000: 788c d8bc 7c08 59bd 13cd e9bd 93e4 62be
00000010: c33d 503e 5d6f 603e ce4b eb3d 8858 ddbc
00000020: 58c4 8b3e 4293 aebe 1752 933e 8ce4 523d
00000030: f5e4 853e 2f5c c0be 6656 ce3e c7d1 1dbe
00000040: e16f 093c 193f acbd 729b 1fbe 2ed4 5bbe
00000050: e4e0 6fbc 2dc6 3d3e fd0e a33e f0c1 933e
00000060: 4ac8 f7bd 850f c9bd 3e6d 253d 3bb0 0f3e
00000070: 949b 87bd 2d46 053f 2308 053e 06a1 8f3e
00000080: e989 123e 3e70 e6bd d1e7 b63d b006 473e
00000090: a472 323d 8b27 7c3e 1d22 393b 3768 a0bd
000000a0: 7668 16be 65f6 01be e31f 9cbe 1d75 303e
000000b0: a100 01be 6515 a9bd 157b c0be 98c6 113f
000000c0: a898 2cbe d72e 43be 0e64 06bc e3ed 493e
000000d0: 7adc 653e a8bd bbbe a18a 01be efb1 a43d
000000e0: cbca 76bf da91 7cbe 1806 8fbe ef53 03be
000000f0: ce8b ca3d c3d4 91be a6a4 f43d 6542 ed3c
00000100: 2f73 1bbd 3bc4 6fbe 12cc 323f 6382 9d3e
00000110: 67bb 1ebf 38de dfbe 9b7b 9abe bb2a c2bd
00000120: f7a4 efbe a885 7abe af50 1abf 7718 9b3d
00000130: 265f 833d 9e91 b73e 567f 74bf 1b04 dfbe
00000140: d2c5 58be 155d 8dbe 4f4d 39bd 5caf 5f3b
00000150: 675d 2bbf 134a 24bf c646 42be 9bab 65be
00000160: d998 5dbe 1e83 693d 39a1 00bf 9689 5bbb
00000170: 4c43 16bd 5d3d 89bf 710d 0cbd 2fe2 12be
00000180: 5523 2cbf b603 97be 1b65 42be b161 88be
00000190: 1c4a 32bc 64d2 fbbe 5552 81be 66f9 a1be
000001a0: 0e32 3cbf 46cd 34bc c685 f2be 7adf 23bf
000001b0: 7fd9 cf3d 3b5e 25be 5211 4f3f 57d2 9b3d
000001c0: c3f5 2dbd 1fa6 03bf ccbd 783d 64a3 33bf
000001d0: 2d5f 583d 4429 94be e81a 4fbe ea79 a9be
000001e0: 85c0 843f 6137 8a3e d111 063d 5542 d83e
000001f0: 6036 59bf 173e 1abf 3624 a2be cfed be3e
00000200: 404a b2be 36d5 a43d add1 4d3d 1586 fcbd
00000210: 3f79 15be 16d1 7a3d 3108 513e d2bd 93bd
00000220: acd9 c33e 5850 6dbd 477b eebd 0289 83bd
00000230: ba49 fbbc cc92 ba3d a80d 00be 9e79 f23d
00000240: 1ccb 833d b4b4 533d d3f1 3b3d e672 373e
00000250: 9f35 763e ef01 f53c 844a bf3e ccd2 0abd
00000260: 5b00 b33d 3079 9abd 5bf0 023e bb0a b63e
00000270: 9d3a e73d 9e05 0ebd 17ce 983c 82c2 633e
00000280: 7b40 40bd 723c a2bc 824a a4bc eef8 3bbd
00000290: fe40 0c3e 5668 14be 4b46 7ebe 9738 863e
000002a0: e4da 19be 6f2d 4ebd 6be1 243d d932 7cbc
000002b0: ad9f 3a3e a3b0 b23e dd06 3bbc fe26 fe3c
000002c0: 3e5c f83d 0b1c dabd 58ce 8ebd 6d82 52be
000002d0: fd5b 9c3d 1d9b 0ebe 7549 88be 2911 4dbd
000002e0: f7c0 cabd 9088 463a 6fdb 063e 86bd 133e
000002f0: ff71 3c3e 7aef ce3e fd41 e13d 07a7 babc
00000300: 2157 093d 9146 81bd 8469 5a3d 1cce bebd
00000310: ec5e c0bd cec5 093e 4cae 3abe d78e 913d
00000320: 9ae4 633e ef44 04be 1426 313f 5ef6 c23e
00000330: ca2d 623e ca76 023c 11f7 873e 8c2a 4dbc
00000340: f823 8b3c d9c9 bb3e af0d 653e b997 45bd
00000350: 8422 dc3c 8179 ff3c 7bbf 04bd fed8 1d3f
00000360: 9981 52be e563 e73e 8579 0b3e 518e 953c
00000370: dc1b 443e 4a55 b23e 6dfc 5a3e ca0c de3e
00000380: 2720 073e 5d5b 813e dfc5 513d a2c2 9e3e
00000390: dd87 8ebd 25df 763d 1cd9 c23e 9c80 663d
000003a0: ff10 903e dbb2 cc3d ba3e c33d fb2a 893d
000003b0: 25bc cebd 79b4 b4bd 14c8 1cbe 3393 bd3e
000003c0: 2edd a2be 5045 98bc af4f ab3e 19f7 013f
000003d0: d585 3ebe 8418 233e e9c7 b0bc 23c0 463c
000003e0: 0bdb db3e 62f7 58bd 5532 1d3e c456 2e3e
000003f0: a655 20bc 9481 9cbe bdf1 713e 43a9 d9bd
-0.026434168 -0.052986607 -0.11416068 -0.22157507 0.2033606 0.21917482 0.11489068 -0.027019754
0.27298236 -0.34096724 0.28773567 0.05148749 0.26151243 -0.3757033 0.40300292 -0.15412055
0.00838849 -0.084104724 -0.15586641 -0.21467659 -0.01464102 0.1853263 0.31847373 0.288589
-0.12098749 -0.09817413 0.040387385 0.1403207 -0.06621471 0.52060205 0.12991385 0.2805254
0.14310421 -0.11251877 0.08930934 0.19436145 0.04356636 0.2462446 0.0028249093 -0.078323774
-0.14688286 -0.12691648 -0.30493078 0.17232175 -0.12597896 -0.08256034 -0.37593904 0.56943655
-0.16855109 -0.19060837 -0.008202566 0.19719653 0.22447386 -0.36668134 -0.12650539 0.08041751
-0.9640319 -0.24665013 -0.27934337 -0.12824987 0.09889947 -0.28482637 0.11945467 0.028962323
-0.037951645 -0.234147 0.69842637 0.3076354 -0.62004703 -0.43724227 -0.30172428 -0.094808064
-0.46805546 -0.24465048 -0.60279363 0.07573026 0.064146325 0.35853285 -0.955068 -0.4355782
-0.21169212 -0.27610078 -0.045239743 0.0034131622 -0.66939396 -0.6417553 -0.1897231 -0.22428744
-0.21640338 0.05700981 -0.50246006 -0.0033498756 -0.036685273 -1.0721852 -0.034192506 -0.14344095
-0.6724141 -0.2949502 -0.18983881 -0.26637033 -0.010881927 -0.49183953 -0.25258127 -0.31635588
-0.7351388 -0.011035269 -0.47367686 -0.64012873 0.10148906 -0.16149227 0.80885804 0.076084785
-0.042470705 -0.51425356 0.06072788 -0.7017119 0.05282514 -0.28937733 -0.20225108 -0.33100826
1.0371252 0.26995376 0.032731835 0.42238107 -0.84848595 -0.6025099 -0.31668252 0.3729081
-0.34822273 0.08048479 0.05024879 -0.123302616 -0.14597033 0.061234556 0.20413281 -0.0721394
0.38252008 -0.05793795 -0.11644607 -0.064226165 -0.030674804 0.091100305 -0.1250521 0.11839603
0.064352244 0.051686004 0.04588492 0.17914924 0.24043892 0.029908149 0.37361538 -0.033892438
0.08740302 -0.07542646 0.12787001 0.35555062 0.112904765 -0.034673326 0.018652959 0.22242168
-0.046936493 -0.019804213 -0.02005506 -0.045891695 0.13696668 -0.14492926 -0.24831502 0.2621505
-0.15024906 -0.050336298 0.040254038 -0.015392982 0.18224974 0.34900388 -0.011415211 0.031024452
0.12126969 -0.1064988 -0.06972951 -0.20557566 0.07634733 -0.13926359 -0.26618543 -0.050065193
-0.099000864 0.000757345 0.13169645 0.14427766 0.18402861 0.4041708 0.109989144 -0.022784723
0.03353036 -0.063122876 0.053323284 -0.09316656 -0.09393105 0.13454363 -0.18230551 0.07107323
0.22255173 -0.12916921 0.6919873 0.38078588 0.2208778 0.007962892 0.26555684 -0.012522351
0.016984925 0.36677435 0.22368501 -0.048240397 0.026871927 0.031185867 -0.032409173 0.6165923
-0.2055725 0.451934 0.13620575 0.018256338 0.19151253 0.34830695 0.21385355 0.43369132
0.13195859 0.25265017 0.051214095 0.31007868 -0.069595076 0.0602714 0.38056266 0.056274995
0.28137967 0.099950515 0.095334485 0.06697651 -0.100944795 -0.08823485 -0.15310699 0.37026367
-0.31809372 -0.018587738 0.3345923 0.50767666 -0.1860574 0.1592732 -0.0215797 0.01213077
0.42940554 -0.052970298 0.15351231 0.17025286 -0.009786045 -0.3056761 0.23627372 -0.10627987

rnn.bias_hh_l0 f4 [256]
00000000: 4d74 72bd b052 0f3c faa8 38be e389 0ebe
00000010: 30b6 dc3d beae 883e 52b6 4b3e 766f 5abd
00000020: b229 773e 3ef4 ddbd 72e9 1c3e 77e9 ea3d
00000030: 23fc 2d3e 5fc7 84be ff6c fe3e 103f 10bc
00000040: 8af1 25bd b4c8 1bbe ee40 63be 6991 89be
00000050: dc72 b03d 49a6 cd3d 2ab9 d03d 62ef b13e
00000060: 294c 33be 4232 91be 3835 c6bd 5f7b e63d
00000070: 1371 90bd d793 233f bf81 583e f49f 903e
00000080: 996f 9f3e 1533 b7bd 7724 5e3c 61c1 8c3e
00000090: 29fd 2f3d 86a0 8a3e 9d92 a83b 290a 263d
000000a0: 1c0c 69be 9ad2 e2bd dd90 9cbe 3666 bd3e
000000b0: b283 9abe 8555 4cbd e0f9 e0be b392 073f
000000c0: 5e2c 8dbe e601 04be fefa 0dbe a827 593e
000000d0: 8c55 183e 8463 bbbe 4e74 ebbd a83e db3d
000000e0: 063b 66bf 9ada 74be ab9a 8fbd 4da0 00be
000000f0: 4d1d 9e3e d3ba 06be 4099 7b3e c50f 33be
00000100: 6cbd 533d ad83 abbe 8ba0 2b3f 3f1f c73e
00000110: 8e72 ddbe 6586 20bf 4c9c e5be 5935 debd
00000120: fe8b 0cbf 793d 17be 2cfa 3bbf 66b6 c93d
00000130: 37fb fdbd 458a aa3e d4f6 6cbf 124b cbbe
00000140: 5c0f b3be 5b1c 9fbe 671d 23be faa4 ffbc
00000150: 2b3a 3fbf e81a ffbe 7145 8cbe 74f6 cfbe
00000160: 79bd 83be acb7 303e b5bc c7be 7a7c cebd
00000170: 91ac 3cbe 618c 83bf 26c7 ebbd 2555 aa3a
00000180: c9b4 23bf eeac 61be 41ac 1fbe 4325 83be
00000190: 5f6c eb3d 89a3 e2be 80d2 a5be 1949 d2be
000001a0: 759c 32bf 9398 e1bd bf26 cdbe e541 f8be
000001b0: c707 833c afd7 0dbd 3683 4b3f e4b8 b7bd
000001c0: ca0d e33d 59e9 20bf 7025 eb3d 17ce 43bf
000001d0: a91c ce3d 9952 87be 0dfd 5cbe 3cc9 1ebe
000001e0: a904 8b3f fb17 5d3e 52bd 02be c72b dd3e
000001f0: 0d96 77bf b5ab 25bf 03da cebe d196 823e
00000200: 7a19 93be 2373 4abc e43b 0abd b8b2 36be
00000210: 8090 16be dff2 d5bb 838e 6a3e e61f 22bd
00000220: a66a ba3e 5c93 c6bd d238 02be ef3d 7d3d
00000230: f6c9 a9bd 91b4 443e 7b66 02be 1634 f23d
00000240: 76e0 4dbc 9fa7 5e3e 30bf 35bd 4cda 323e
00000250: ff3a f63d 3f3e 563d 75ff 983e 567a 503e
00000260: 38cf 393e 6e3e 80be 2e0d 52bd cf10 7a3e
00000270: 7ee2 383e 0334 01be ab80 90bd e395 b43d
00000280: 0be1 41bd d390 49bd d3e8 8c3d 12f3 19be
00000290: 05d6 073e 1417 a4bd 4aa9 45be 62d9 f03e
000002a0: 0df1 39be 3a3f 20be 0e1e c3bd cc81 55be
000002b0: 55b3 193e 2e21 7c3e f8c5 f5bc e02c e4bd
000002c0: 3eb8 c93d c578 2bbe 0696 7bbe edaf a73c
000002d0: b576 a8bc b2f4 893d 1248 64bd e31a fd3d
000002e0: 4990 20be a2a0 86bd 1819 d53d 0be9 c73d
000002f0: 4cf0 bcbc 8cd4 ac3e 6ad2 5b3d 0b00 d3bd
00000300: 15ca 923d 6b91 463d d83a b73c 3a2a a8bc
00000310: e9c1 33bd e1d9 083e 426c 9cbe dc37 b5bd
00000320: f62c 7c3e c4b3 e1bc 62b4 0d3f 518c d03e
00000330: e541 9a3e fa0a debd b44d be3e 1bf9 2f3e
00000340: d2cf ab3d eb47 753e 159c 353e 81a4 9c3d
00000350: 7d30 5f3e fac7 f83d 5cf2 463d ea7e f23e
00000360: ef53 2fbd de59 c53e 776e ec3d f406 023e
00000370: de20 2e3e 4120 fa3e 746d 7b3e 168c e73e
00000380: 7842 f93d 8f36 853e e262 213e 43a7 e13e
00000390: 08c9 16be 028e ebbd 163f 703e bfa1 823c
000003a0: 7720 953e 9eff 813e 577f ef3d d227 5b3e
000003b0: 29f8 3f3d 83ba d8bd 3c63 623c e278 bb3e
000003c0: 1a8f 87be 91db 29be 23db b03e a56e da3e
000003d0: bfd0 80be 9312 1b3c 978f 013e 8d74 11be
000003e0: 1b11 b53e cf9c 033e 8954 1b3c 3318 833d
000003f0: f529 a33d 7b54 0cbe b9a8 593e c520 dbbd
-0.059192944 0.008747742 -0.1803321 -0.13919787 0.10776937 0.26695818 0.19893768 -0.053328954
0.24136999 -0.10837601 0.15323427 0.11470311 0.16990714 -0.25933358 0.49692532 -0.008804098
-0.040513553 -0.15213281 -0.22192737 -0.26868752 0.08615658 0.10041482 0.10191567 0.34752947
-0.17509522 -0.28358656 -0.096781194 0.11254 -0.07052817 0.6389746 0.21143244 0.28247035
0.3113983 -0.0894529 0.013558499 0.27491286 0.04296604 0.27075595 0.005144431 0.040537033
-0.22758526 -0.11075325 -0.30579272 0.36992043 -0.301786 -0.049886245 -0.4394064 0.5295822
-0.27572912 -0.12891349 -0.13865277 0.21206534 0.14876384 -0.36599362 -0.11496793 0.1070531
-0.8993381 -0.23911515 -0.070119224 -0.1256115 0.3088173 -0.13157205 0.24570179 -0.17486484
0.05169432 -0.33498898 0.67041844 0.38891026 -0.4325146 -0.6270507 -0.44845808 -0.10850019
-0.5490111 -0.14769544 -0.73428607 0.09849243 -0.12401431 0.33308616 -0.9256413 -0.39705712
-0.34972656 -0.3107632 -0.15929185 -0.031206597 -0.7469813 -0.49825215 -0.2739673 -0.40617716
-0.25730494 0.17257565 -0.3901116 -0.10082336 -0.18425204 -1.0277215 -0.11512594 0.0012995346
-0.6394773 -0.22038624 -0.15593053 -0.25614366 0.114952795 -0.44265392 -0.3238716 -0.41071394
-0.69769984 -0.11015429 -0.40068623 -0.48487774 0.01599492 -0.03462952 0.79497087 -0.08970812
0.110866144 -0.6285606 0.1148175 -0.76486343 0.1006406 -0.26430205 -0.21580906 -0.15506452
1.0860797 0.21591179 -0.12767532 0.43197462 -0.96713334 -0.6471513 -0.40400705 0.2550569
-0.28730375 -0.012356552 -0.033748522 -0.17841613 -0.1470356 -0.0065291966 0.22905926 -0.039581202
0.3640949 -0.09696075 -0.12716988 0.061826643 -0.08290474 0.19209506 -0.12734406 0.11826341
-0.012565723 0.2174363 -0.044371784 0.17466086 0.12022971 0.052305456 0.29882398 0.20359167
0.18145454 -0.2504763 -0.0512821 0.24420474 0.1805515 -0.12617497 -0.070557915 0.08817651
-0.04733376 -0.04921038 0.06880345 -0.1503413 0.13265236 -0.08012214 -0.1930286 0.4704085
-0.1815836 -0.15649119 -0.09527217 -0.20850295 0.15009816 0.24622032 -0.030001625 -0.11141372
0.098495945 -0.16745289 -0.24568948 0.02046963 -0.020564416 0.06736125 -0.055732794 0.12358644
-0.1568004 -0.06573607 0.10405177 0.09761246 -0.023063801 0.3375591 0.053667463 -0.103027426
0.0716745 0.048478525 0.022366926 -0.020527948 -0.0438861 0.13364364 -0.30551344 -0.08848545
0.24626526 -0.02755154 0.5535337 0.40732053 0.301284 -0.10841937 0.37168658 0.1718487
0.08389248 0.23953216 0.17735322 0.07648564 0.2179584 0.121475175 0.048570976 0.47362453
-0.042804655 0.38545126 0.11544507 0.12697965 0.17004725 0.48852733 0.24553472 0.45224065
0.12170881 0.26018187 0.15760377 0.44072923 -0.14725125 -0.11501695 0.23461565 0.015946267
0.2912633 0.25390333 0.1169421 0.21401909 0.046867523 -0.10582449 0.013817605 0.36615664
-0.26476365 -0.16587664 0.34542188 0.4266254 -0.2515926 0.009464878 0.12652431 -0.14204617
0.35364613 0.12852786 0.009480604 0.064011 0.07966987 -0.13704102 0.21255769 -0.1069961

rnn.weight_ih_l0_reverse f4 [256, 36]
00000000: 09dc 7bbc 7543 3dbd 4ebb 00be aa53 573e
00000010: 458f b23d 8640 03be 0374 e2be cd4d a3bd
00000020: 0e38 9e3e 3b9f dcbe fa11 68bd b5a0 803b
00000030: 02aa 763e cee6 ddbe 3178 003c 5181 71be
00000040: f15e f5bd 0331 41be bf40 bebe f752 7abe
00000050: 36b3 19be 109f 463e 1e60 fabe 69d5 7ebc
00000060: c4b3 953e 8469 a2bd 4b95 d83d 4d78 f33e
00000070: 87bf a53e 0f73 ce3e 3518 b2be eaa6 5fbe
00000080: ea57 d73f fe7f 13bf 03e6 dbbe 053b 223f
00000090: 4435 3f3e 0247 323b 2845 c83d 0f4e d2bd
000000a0: d222 e13e fbe2 733e f573 fbbd 339b 73be
000000b0: f47b b3be e402 513e a405 373e c006 52be
000000c0: 637f 59be f558 31be b15d 303c 0771 7dbe
000000d0: 6a0c b5be f0d0 9ebd 4cfc 2fbc 5a7e 563c
000000e0: 21d8 d0bd 8a6f a73c 8b7a 6c3d 170d 3dbe
000000f0: 524a ae3e e5a7 763b 5fde 5ebd 1f69 c23d
00000100: 3669 1ebd e553 ad3e dc5b c03e df41 d33e
00000110: ca98 4dbf 305f f63e c44b e33e e92b e2bf
00000120: 8824 c4bb 9395 cb3c d856 34bf f075 aa3e
00000130: c38f 383c 7448 babe 13a5 85bd 6e32 1d3e
00000140: f150 15bc 483e b53d 3b8a 9ebd d11c 23be
00000150: e933 8c3f 3193 13be db77 2f3f 4ba8 9a3d
00000160: 25c6 3bbe 3fa1 903e eb81 913e 270c b23e
00000170: 43a3 b93d a3d9 53be c34a c13d f1a9 ffbd
00000180: ff0a 023e c316 9e3e 2894 a33c abb2 2b3e
00000190: 34cf e0bc 93f6 c73e 6112 bcbe 94e5 7fbe
000001a0: ca72 3a40 3434 083f 0cda f03e 76ae 23bf
000001b0: 2970 4fbd e5f0 a9be f970 babe 80b0 66be
000001c0: 8931 653d b305 103d 2b72 3d3d 5efc 3ebf
000001d0: fc7b a53e 8346 a7be 491d b5bd afb4 16bd
000001e0: 3e9f 813e 341d 82be 2f13 a4bd c70b 173e
000001f0: 4e4f 5dbd 2c43 8e3d a70d 883c b123 363d
00000200: cf84 51be 8ef9 1b3e 2e98 7bbe ab04 f53e
00000210: d7f0 bf3d 231a 81be d81e 153e 5c14 a438
00000220: 226d 5c3e 81c6 673e c8a4 9b3e d304 9cbd
00000230: d9ff f2be ea3c 36bf b563 2dbf 5e0a ba3d
00000240: 654f b83d e3fc 25be 8a7b 243f 6df4 293e
00000250: 6e10 95be c481 a5bb d1d0 7e3e eb87 0cbe
00000260: 2614 fc3e 9df1 44be 1d96 1e3f ed02 a33e
00000270: e91b 13bf e14a 183f 7d29 a43d 5fea 033e
00000280: 1688 3cbe 4795 bcbe 999f 5e3d 707d 0ebf
00000290: bb36 49be 88f7 213f fee1 2dbf c83f cabd
000002a0: 9492 7bbd 553d a8bd 3501 55bf bf20 ee3c
000002b0: d145 80bf c1ab f33e 11f0 81be 3dfe 073f
000002c0: 70aa bfbf d96a 70bf 5fb0 41bf 87b8 febf
000002d0: 8f34 343d e0d3 c1bc f62f 493d adb3 053e
000002e0: df97 f23c 042b 95be 748e 0dbe 9707 9a3e
000002f0: a757 10be e7f0 4b3e 13bd 193d a2bf 743e
00000300: 23ed 13be 238c bc3c 7b1e fabd d8f7 f5bd
00000310: 5163 39bc 632f 4d3e 6a73 523e 1a16 4dbd
00000320: 325b 733d feba 323d 012b 22bc 8fca b6bd
00000330: 267e 793e 6150 013d 6877 b5be a837 a2bc
00000340: 49b5 453d 2af3 aebd 99c9 c53d 3741 84bd
00000350: 6011 3d3f 0901 1440 a715 1440 3780 293f
00000360: ade4 4b3e e0df fb3d f18c b3be 0d95 a1be
00000370: f7de 63be 0f5e bbbd 798f 82be d3ea a23e
00000380: 953c e7bd eb95 7e3e c178 dc3d 7aff 983e
00000390: 791b 7a3d 04de b7be de55 d5bc 0a70 1cbe
000003a0: 47ab fd3d b82e 593e 70dc a63d fd08 7ebd
000003b0: 0ca2 c9bd dae3 2b3e a957 873d 6d4e abbd
000003c0: 0ff3 223e 5a70 99be f7f0 7bbd 380f e1bd
000003d0: f739 b33c d8b7 36be 05b2 debe 48eb 74be
000003e0: 9eda 1abf 9bf5 d0bc 31ed 3dbe 7fa6 66bf
000003f0: 47ae 043e 82db b6be e9a5 b9be c576 8b3e
-0.015372285 -0.04620691 -0.12571451 0.21028009 0.08718733 -0.12817582 -0.44229135 -0.07973824
0.3090214 -0.43090233 -0.05665777 0.003925408 0.2408829 -0.43340153 0.007841156 -0.23584487
-0.11980999 -0.18866353 -0.37158772 -0.24445711 -0.1500977 0.19396615 -0.48901457 -0.015553811
0.29238713 -0.07930282 0.105753504 0.4755272 0.32372686 0.40322158 -0.34784093 -0.21841016
1.6823704 -0.57617176 -0.42948923 0.63371307 0.18672663 0.0027202968 0.097788155 -0.10268795
0.43971878 0.23817055 -0.122779764 -0.23789673 -0.35055506 0.20411259 0.17873245 -0.20510387
-0.2124 -0.1731909 0.010764525 -0.24750148 -0.35361034 -0.077546954 -0.010741305 0.013091648
-0.10197473 0.020438928 0.057734054 -0.18462025 0.34041077 0.0037636694 -0.05441129 0.094927065
-0.038674556 0.3385307 0.37570083 0.41261193 -0.8031126 0.48119497 0.44393742 -1.766965
-0.0059858 0.024851596 -0.70445013 0.33293104 0.011264744 -0.36383402 -0.06525626 0.15351269
-0.009113536 0.0884977 -0.07741209 -0.15928961 1.0953342 -0.14411618 0.6854226 0.075516306
-0.18337305 0.2824802 0.28419432 0.34774897 0.09064343 -0.2068849 0.09438088 -0.124835856
0.12699507 0.3087674 0.019968107 0.16767375 -0.027442552 0.3905531 -0.36732772 -0.24989921
2.9132562 0.53204656 0.47041357 -0.6393808 -0.050644074 -0.331916 -0.36414316 -0.22528267
0.055955444 0.035161685 0.046251457 -0.7460383 0.32321155 -0.32670984 -0.08843476 -0.036793407
0.25316805 -0.25412905 -0.080114715 0.14750586 -0.05403071 0.06946406 0.016608072 0.04446763
-0.20460819 0.15231916 -0.2456977 0.47855124 0.093721084 -0.25215253 0.14562547 7.8239216e-05
0.21526006 0.22634317 0.30399156 -0.07618108 -0.4746082 -0.711867 -0.67730266 0.09084009
0.08999518 -0.1620975 0.64251006 0.16597147 -0.29114097 -0.0050508697 0.24884345 -0.13723724
0.49234122 -0.19232793 0.61947805 0.3183817 -0.5746446 0.59489256 0.08015726 0.12882374
-0.18411288 -0.3683264 0.054351423 -0.5566015 -0.19649784 0.6326833 -0.6792296 -0.098754466
-0.061419085 -0.08214823 -0.83204967 0.029068349 -1.0021306 0.47591975 -0.2537847 0.5312231
-1.4973888 -0.93913037 -0.75659746 -1.9900063 0.043995436 -0.0236606 0.049118005 0.13056822
0.029613433 -0.2913438 -0.13823873 0.30083916 -0.14095937 0.19916116 0.03753383 0.23901227
-0.14445929 0.023016041 -0.12212845 -0.12010163 -0.011315183 0.20037608 0.2055184 -0.050069906
0.059413143 0.04363536 -0.009897948 -0.08925354 0.24364528 0.031570796 -0.35442662 -0.01980193
0.04826859 -0.085424736 0.09657592 -0.06457751 0.7385464 2.3125632 2.3138216 0.66211265
0.19911452 0.1229856 -0.35068467 -0.3155903 -0.22253023 -0.091488 -0.25500086 0.31819782
-0.11290852 0.24861877 0.107652195 0.29882413 0.061061356 -0.35911572 -0.026041921 -0.15277115
0.12386184 0.21209228 0.08147514 -0.06202029 -0.09845361 0.16786137 0.06608517 -0.08364568
0.15913032 -0.2996853 -0.0615091 -0.10989231 0.021878226 -0.17843568 -0.43495193 -0.23917878
-0.60489833 -0.025507739 -0.18547513 -0.900978 0.12957107 -0.35714346 -0.36259392 0.2723905

rnn.weight_hh_l0_reverse f4 [256, 64]
00000000: 08ce 6cbf 7474 fb3e 3578 e43c 3b0c 86be
00000010: ccce 0f3f ec11 a3be 9e35 063e d950 363f
00000020: 1c75 3fbf de00 7abe 190e 17be f35a 073f
00000030: e8ca 1dbf 96a3 8b3c 0f91 283d 9313 05bf
00000040: e152 a13e 61ea 9f3d a286 b33d e7ed 68bf
00000050: 4de5 7c3e 41c4 823f d070 44bf 7330 a33e
00000060: ce8a 97be 4bb2 08be 0142 8bbf cd4f dcbe
00000070: 5447 f23d 64a8 753e 6cf5 e5be c21a b4be
00000080: ce96 073f 0cc0 18bf 5f62 033f 9b41 f2be
00000090: d3ad 94bd 3977 be3e b8b8 5a3d 6006 25bf
000000a0: 3e61 14bd 0ed6 67be 80e6 4abe 1c90 80bd
000000b0: ea47 2cbf e180 e5be 4675 36bf 363f 6bbd
000000c0: d664 bc3e 2e06 fbbd 3737 f0be aded 11bf
000000d0: 64b8 c73e 4b4e 3ebe 1b4a 4dbf 3403 003f
000000e0: 4a80 06bd b579 45bd 8fd1 bfbe dae8 e1bd
000000f0: c86f d1be 5ee6 20bd b0d8 d5be 48a8 f83d
00000100: 8f24 98be 3257 c1be a46b acbe 62aa d43e
00000110: d9d4 87be 3890 c1bb 1826 dfbb 1e08 aa3e
00000120: 695d c4bd 981f 063f 2f7a 183e 824f 3e3e
00000130: 506c 233e 09be 94bf 91cb e7bd eaa1 4dbe
00000140: 5fd8 b0bd 2ec4 593e eb5c 5dbf be99 163d
00000150: 8bfc 303e db8b c4be 5e97 ef3d 06f1 f63e
00000160: e268 0e3f 94ed c2be 0bb3 053f 668a b7be
00000170: 73a6 f83e ecf9 a1be b991 fb3e 2950 e13e
00000180: b5e1 063f b5b1 babc ab64 2bbe 9499 8f3e
00000190: edd7 503f a244 3cbe a7a5 073e 959b afbc
000001a0: d9ac b3be d4a2 aabe c7b9 6abe 20f5 8ebe
000001b0: dcb0 bc3e 4c17 e33e 14a2 dabe f05e 963e
000001c0: 5776 a9bd 2add 1d3e 44e8 b6be 5e88 a23e
000001d0: e910 cebe 2e18 9abe 3707 17bf 828d 563e
000001e0: 4d36 e5bc 4930 bb3e ec63 e13e 3137 51bd
000001f0: 3a59 93be 9424 00be 2a52 f23e b19f dfbe
00000200: eb2a 9fbe 29e3 0fbf 5582 01bf c7a9 e6be
00000210: 577a d0bd 6c11 58be 6ea4 513e 6eee b5bc
00000220: b356 b03d 2504 90be 3da7 dabd b860 ae3e
00000230: 0b50 2ebf ef74 77be e1f5 5b3d 3cdf c3be
00000240: 8ef0 d43e 2bdf 18bf d3e1 6fbe 7570 c9be
00000250: 4163 d23e 6b11 f43e a100 36be 74b6 02bd
00000260: 1835 72be ab2e c5be aea3 2d3e 8aca f13d
00000270: 2a65 143e 72d6 e33d 9f0b 9c3e 70dd ca3e
00000280: 0792 fbbe fba3 963e c10d 16bf 776d 773d
00000290: 80dd 08bf 2fb7 933e 18e5 acbe 5917 923e
000002a0: ee3b 433f 0661 32bf 492c d33e 4422 f1bd
000002b0: 0508 e5bd e41a 083f 2b5a 81bf a851 4b3f
000002c0: 9e1e 153f aad1 c03d 2eb4 24bf b322 80bf
000002d0: 7e6d d4be 2b71 cbbe cdd7 f23e 8da5 bd3d
000002e0: 5b4d 3bbf b59a 5abf e1bb 81be 2234 8f3f
000002f0: 267e a03c 84e8 953f 77c6 c0be a4ca 823e
00000300: 026d 4b3f f132 153e e49d 0abd 29a0 f33e
00000310: baff b7be 9b5c 1c3f 0564 13be 31bc 4cbf
00000320: a162 aabe 1042 ff3e 80f7 c4be 048f 333e
00000330: 6ca8 043f 1489 81bf 069a 88bf 60ec 5cbe
00000340: a879 f0be 8712 0ebf bac4 f33e 6080 103f
00000350: d828 15be 94ce f0be 8774 29bf 2bb4 513e
00000360: eec8 5b3f 2fb7 923f 9575 333e 68e0 a7be
00000370: 0aa8 013f 16ea cebe a428 b43e 9783 73be
00000380: 01f5 ffbe a180 c53e 3659 3e3f 6945 2f3f
00000390: fee1 823f a794 0e3f 9cf2 d73e 8eb9 b7be
000003a0: 3115 0d3f f7d7 233f e993 fb3e d002 b4be
000003b0: 6730 1a3f 8b53 09bf d027 00bf f888 d03e
000003c0: b2cf 643e 9283 8a3e b87c 593d 962f 8fbe
000003d0: 2084 44bf 870d 833e c9b5 cd3e 840f 9a3d
000003e0: 8079 bf3e 1444 8a3d 96f6 8b3f d163 05bf
000003f0: df3d b93c 3eed 243e 9a33 6f3e 5369 013f
-0.9250188 0.49112284 0.02788935 -0.26181206 0.5617492 -0.3184961 0.13106391 0.71217114
-0.7478807 -0.24414393 -0.14751472 0.5287315 -0.61637735 0.017045777 0.041153964 -0.5198299
0.31508544 0.07808376 0.087659135 -0.9098801 0.24696846 1.0216142 -0.7673464 0.318729
-0.29598087 -0.13349263 -1.0879518 -0.43029633 0.11830011 0.23990017 -0.44913805 -0.35176665
0.52964485 -0.5966804 0.5132198 -0.47315678 -0.07259717 0.37200335 0.053398818 -0.6446285
-0.03622555 -0.22640249 -0.19814491 -0.06277487 -0.6729723 -0.4482489 -0.71272695 -0.05743333
0.36795682 -0.12257038 -0.46917126 -0.5700329 0.39007866 -0.18584554 -0.801912 0.5000489
-0.03283719 -0.048211772 -0.37464568 -0.11030741 -0.40905595 -0.039282195 -0.41766882 0.12141472
-0.29715392 -0.37761837 -0.33675873 0.41536242 -0.26529577 -0.005907085 -0.006809961 0.33209318
-0.09588129 0.5239196 0.1489036 0.18585017 0.15959287 -1.1620494 -0.11318124 -0.20081297
-0.086350195 0.21266243 -0.86469907 0.036767714 0.17283837 -0.3838795 0.11698793 0.4823076
0.5562879 -0.38071883 0.5222632 -0.35847777 0.4856449 -0.31635988 0.49134615 0.4400647
0.5268815 -0.022789815 -0.1673762 0.28046858 0.81579477 -0.18385556 0.13246785 -0.021436492
-0.3509281 -0.33327353 -0.22922431 -0.2792139 0.36853683 0.44353712 -0.4270178 0.29369307
-0.08274525 0.15416399 -0.3572408 0.31744665 -0.40247276 -0.30096573 -0.58995384 0.20952418
-0.027979994 0.36560276 0.44021547 -0.051078025 -0.28779012 -0.12513953 0.4732831 -0.43676522
-0.3108743 -0.56205994 -0.50589496 -0.45051405 -0.101795845 -0.21100396 0.20472881 -0.022208419
0.086102866 -0.28128162 -0.106764294 0.34058166 -0.68090886 -0.241657 0.053701285 -0.38256252
0.4158978 -0.5971553 -0.23425989 -0.3934361 0.4109135 0.4766954 -0.17773677 -0.031912282
-0.23653066 -0.38512167 0.1695697 0.118062094 0.14491716 0.111248866 0.30477616 0.39622068
-0.49134848 0.29421982 -0.58614737 0.06040713 -0.5346298 0.28850695 -0.33768535 0.28533438
0.7626332 -0.69679296 0.41244724 -0.11774114 -0.1118317 0.5316603 -1.0105642 0.7942147
0.58249843 0.0941499 -0.6433743 -1.0010589 -0.41489786 -0.39734778 0.47430268 0.09260092
-0.7316491 -0.85392314 -0.25338653 1.1187785 0.019591402 1.1711583 -0.37651417 0.25545228
0.7946321 0.14570214 -0.033841982 0.4758313 -0.3593729 0.61078805 -0.14393623 -0.7997466
-0.33278373 0.4985509 -0.38470078 0.17535025 0.5181949 -1.0119958 -1.0672004 -0.21574545
-0.46967816 -0.5549702 0.47611028 0.56445885 -0.14566362 -0.47032607 -0.6619343 0.20478885
0.8585347 1.1462153 0.17525323 -0.32788396 0.5064703 -0.40412968 0.35187256 -0.23780666
-0.4999161 0.385747 0.74354875 0.68465286 1.0225217 0.55695575 0.42177284 -0.35883754
0.5511046 0.6400141 0.49136284 -0.35158396 0.60230106 -0.536431 -0.5006075 0.407295
0.22344854 0.27053505 0.053097457 -0.27965993 -0.76764107 0.25596258 0.40177754 0.075224906
0.37397385 0.06751266 1.0934627 -0.5210543 0.02261251 0.16106126 0.23359528 0.50551337

rnn.bias_ih_l0_reverse f4 [256]
00000000: 9357 9cbd 8044 8d3c a723 df3e 9774 6b3e
00000010: 6d5d 4cbe 46cd 1cbe 46d5 1fbf f037 62bc
00000020: 4edd 7b3e 15ed aa3e 00d0 b23e 6237 13bf
00000030: bab3 4a3d 5a2a b13e 7846 0f3e 3bae c33d
00000040: 60f5 0bbf 9995 dfbc f3f6 7cbd 94f0 883e
00000050: be42 91be fdca 7dbe 951d 1a3e 2a37 783d
00000060: f10e b03d ad94 3dbf 4130 c43e 8b5d b7be
00000070: 88be 6a3d f746 09be aaed 0cbe 9172 a8be
00000080: 46c5 09bd f257 2f3f 5db6 8fbd 4d1f 42bd
00000090: 7e91 3cbf 8b6e 63be 9e52 23bf d363 163c
000000a0: a93a b8bd 6413 d13e 1b6b 69ba 0510 203e
000000b0: 47dd 973d e045 79bc 1601 bbbd 4151 92be
000000c0: d469 e1bd eac5 563e 521f 043e 8249 a53c
000000d0: 29e8 813e 5718 283e 3759 bc3d 9018 133e
000000e0: 1ae1 dc3d e4a8 3e3e 2f06 a73d e8eb aa3c
000000f0: 2646 85be e1be 153e 54d8 0bbd 3bdb cebe
00000100: e7e5 24bf 2e65 de3e caa3 7abf cb5a bc3e
00000110: ccf6 8abe 95df 8e3b 6742 07bf 9efb 6dbe
00000120: 2d42 853e 929a 06be 0b50 073f 8b92 b9be
00000130: aa80 d83c abd0 64be 7098 e0be ca49 3fbe
00000140: 65de 05bf d3ce 51be c3e1 6fbe 0300 a7be
00000150: 7fc1 74bf 4f58 8d3a 443c 9f3d 6b4d 5abe
00000160: b0a9 07be 4c77 3bbf 2d6e b7be c776 b8be
00000170: 9d5c dabe f606 13bf 1fae 0ebf c612 d2be
00000180: 76c1 0dbd 577b 1bbc 94f5 25bd aa64 3dbf
00000190: ba67 fb3e 3d88 e93e a6af 21bf c10d f3bc
000001a0: cb95 9ebe ec08 36be d9c9 0abf e8c7 81be
000001b0: 7cb9 87be d3fa a6be 72f4 d43d cce5 fcbe
000001c0: 0136 6cbe ffec 3cbf 9e6b 00bf 6d41 9abe
000001d0: f757 243e 46a4 d23d 7dde 3bbd 0915 9dbc
000001e0: 3891 613e a260 0cbf f404 983e 0e4f 63bd
000001f0: 1fee efbd be10 d5be d10c 61be 7a48 adbe
00000200: afaa 6cbc 0847 ffbd d667 093e 901d f53c
00000210: c07c 67be 3ac5 9f3e 9458 16be 5cc0 8a3d
00000220: 79d5 8ebe 1248 75bd 8fed 923e d1f5 3cbe
00000230: 90b3 cfbd f3fb 1dbe dde8 2fbd a2b8 3fbe
00000240: 41b4 f7bd d219 70be dad2 04bc 8b76 893d
00000250: 222a 0cbe 5b43 053e 5bd4 dabd a2a7 3cbd
00000260: a516 6d3c 1e96 5e3e 1b4d cebc 88ab efbd
00000270: 6dba 36be f323 8dbd 3029 803e d2ba c23d
00000280: f70d 24bd 7bf4 59bf cedd e13d 4b92 9c3c
00000290: e8b5 3abf 28ab b1bd 5d69 a73d fe47 963d
000002a0: 49a1 283c abd5 c9bc 0b24 193c 8467 c83d
000002b0: b33d aabd c391 7d3e 0b24 8bbd 1ca8 19be
000002c0: 6d00 a23c 1ed9 fa3d 071c b63e a144 653e
000002d0: 04e1 02be c82e 31bf 5067 82be 8571 e5bd
000002e0: 2d15 6fbe 984e 053e ed39 92be ba9b 943d
000002f0: 9dea babd 48db f5bc a6d1 25be 409c 83be
00000300: dc51 b1be 33d2 af3d 49ac 653e b258 f8be
00000310: 20fa 2d3d 06e9 353f 25f1 f0be fa38 1cbe
00000320: 2d37 f3be 7140 233f 2d03 babe fe87 39bf
00000330: 7d70 68be 2fe1 8c3e 9d15 7e3e 2e0b c03e
00000340: 7ffb 92be 7dfd 2f3e e9c4 bd3e e458 ad3e
00000350: 95f8 e2be 9519 073d e1ff 2dbf 4c9b fe3e
00000360: 6fc0 8c3d 6a5d 48bf f036 d13e f28b 53bd
00000370: 1014 3a3e 9be1 b53d 9391 943e e378 0fbe
00000380: 0cfe 6d3d a365 bfbe 5405 463e 8194 86ba
00000390: 110e 09be c176 2d3d 90c8 a1be 7344 fabd
000003a0: 4bf1 05be 8cf1 c93e 0a4b 16be 547f 75bd
000003b0: 7d1b b63d 97cb 153d 9a89 4bbe 4958 dcbd
000003c0: dbda 863d c1fc bcbe 97ce ef3c df4e b93e
000003d0: c179 723e 3049 f9be 30e3 673d 55f2 c43e
000003e0: d888 d93d 89d4 003e 04c8 0cbf 8ce2 3b3e
000003f0: ae92 283e 4eb8 78bc e512 753e 51b1 3f3e
-0.07633891 0.017244577 0.43581888 0.22993694 -0.19957514 -0.1531268 -0.62434804 -0.013807282
0.2459614 0.33384004 0.34924316 -0.5750638 0.049487807 0.34602624 0.13991725 0.09554716
-0.5467129 -0.027293013 -0.061758947 0.26746047 -0.28371233 -0.24784465 0.15050347 0.060599484
0.085966 -0.74054986 0.38318065 -0.35813555 0.05731061 -0.13405977 -0.13762537 -0.32899907
-0.0336354 0.6849357 -0.07017205 -0.047393132 -0.73659503 -0.22210138 -0.6379794 0.009179073
-0.089955635 0.40835106 -0.00089042046 0.15631111 0.07415252 -0.015214413 -0.091310665 -0.28577617
-0.11006513 0.20973936 0.12902573 0.020176653 0.25372437 0.16415535 0.09196704 0.14364839
0.10785122 0.18619114 0.08155476 0.020864442 -0.26030082 0.14623596 -0.034141853 -0.40401635
-0.64413303 0.4343657 -0.9790617 0.3678802 -0.27141416 0.004360149 -0.52835697 -0.23240516
0.2602705 -0.13144901 0.5285651 -0.36244616 0.02642854 -0.22345226 -0.438663 -0.18680492
-0.5229247 -0.20489053 -0.23425965 -0.32617196 -0.9560775 0.0010783764 0.07775167 -0.21318595
-0.13248324 -0.7322891 -0.35826245 -0.3602812 -0.42648783 -0.57432497 -0.5573444 -0.41029948
-0.034608327 -0.009489856 -0.040517405 -0.73981726 0.49102575 0.45611754 -0.63158643 -0.029669644
-0.30973658 -0.17776841 -0.54214245 -0.2534783 -0.265087 -0.3261324 0.10398187 -0.4939407
-0.23067476 -0.7379913 -0.5016421 -0.3012804 0.16049181 0.10285239 -0.04586648 -0.01917507
0.22028053 -0.5483495 0.2969128 -0.055495314 -0.1171534 -0.41614336 -0.21977545 -0.33844358
-0.014444991 -0.1246472 0.13418517 0.029921323 -0.22606182 0.3120516 -0.14682227 0.06774971
-0.27897242 -0.059883185 0.28696868 -0.18453147 -0.10141671 -0.15428142 -0.042946685 -0.18722776
-0.120949276 -0.2344735 -0.008106912 0.067120634 -0.13687947 0.13013975 -0.10685035 -0.046058305
0.014470731 0.21736953 -0.025183251 -0.11702639 -0.17844553 -0.068916224 0.25031424 0.095082894
-0.04005238 -0.8513867 0.11028634 0.019112727 -0.72933817 -0.086752236 0.08174393 0.0733795
0.01029236 -0.024638018 0.009346972 0.09785369 -0.083125494 0.24762635 -0.06793984 -0.15005535
0.019775594 0.12248443 0.35568258 0.22389461 -0.12781149 -0.6921201 -0.25469446 -0.11203293
-0.23347922 0.13018262 -0.2855982 0.07256265 -0.0912678 -0.030011788 -0.16193256 -0.25705147
-0.34632766 0.08585014 0.22429003 -0.4850517 0.042474866 0.7105869 -0.4705898 -0.1525611
-0.47503033 0.63770205 -0.36330548 -0.7247313 -0.22699161 0.2751555 0.24812932 0.3750853
-0.287075 0.17186542 0.37064293 0.3385688 -0.44330278 0.03298338 -0.67968565 0.49727857
0.06872641 -0.7826754 0.40862226 -0.051647134 0.18171716 0.088809215 0.29017314 -0.14010958
0.058103606 -0.3738223 0.1933797 -0.0010267646 -0.13384272 0.04234958 -0.3159833 -0.12220087
-0.13080327 0.39442098 -0.14677063 -0.059935883 0.08891962 0.03657111 -0.1987671 -0.107590266
0.06584712 -0.36911586 0.029273314 0.36192986 0.23679258 -0.4868865 0.056613147 0.38466135
0.10621804 0.12581076 -0.549927 0.1834814 0.16462204 -0.01518066 0.23932989 0.18719985
