models/fr/tokenize/gsd.pt (torch_old, 659647 bytes, 23 tensors)

embeddings.weight f4 [306, 32]
000000 85 85 bb bd 4a fb f3 be 51 65 79 3d d3 b6 e7 be
       -0.09156326 -0.47652656 0.06088764 -0.4525667
000010 a4 d8 81 bd eb 3a 3e 3e 6d 05 5c 3c 15 28 f7 3e
       -0.06340149 0.18577163 0.013429028 0.48272768
000020 45 be c8 3d 31 27 12 3e 9f b3 e0 be e9 c4 19 3e
       0.09801916 0.14272763 -0.4388704 0.15016522
000030 46 d0 d3 bd 2f ac 14 be 06 5d 28 3e 34 6d 4e 3e
       -0.103424594 -0.14518808 0.16441736 0.20158845
000040 f6 4c 04 be 3f 86 f7 3e eb 32 2e bf 1d e9 92 bc
       -0.12919983 0.4834461 -0.68046445 -0.017933423
000050 30 d3 1a be 7e fc 61 3e 4d 6f f0 3c 2a 24 8e be
       -0.15119624 0.22068974 0.029349947 -0.27761966
000060 2b b4 75 3e cf 01 95 bd 1a 6c e7 bd ed 23 0c be
       0.2399451 -0.072757356 -0.112999156 -0.1368558
000070 0e 9e 2e bd 24 5f bc be ec ff 82 be 6e 78 52 3e
       -0.0426312 -0.36791337 -0.25585878 0.20553753
000080 96 6c 12 3d 63 50 2c bd cb 25 ac 3c cd bd 9c bd
       0.035748087 -0.04206885 0.021014115 -0.07653389
000090 c0 c3 03 3d 1b d3 2a 3d 68 d1 8d bd d0 95 4d 3d
       0.032169104 0.041705232 -0.06924707 0.0501917
0000a0 f8 a7 a1 3d 49 d3 15 3d dc 35 11 bd 2c 3d 96 3c
       0.078933656 0.03657845 -0.035451755 0.018339716
0000b0 2a 45 9d 3d 97 7c bc bc 05 15 a2 3b 63 2f 7d 3d
       0.076792076 -0.023008628 0.0049463534 0.06181277
0000c0 8c b9 8b 3c 01 23 f2 3a 0f 4f b1 bd fc 6d ff bd
       0.01705625 0.0018473567 -0.08657657 -0.1247215
0000d0 87 fe 24 bc f6 d4 29 3d 59 78 59 bd 6b 93 8f bc
       -0.01007045 0.04146286 -0.053093288 -0.017526349
0000e0 5d 09 18 3d d1 c0 d1 3d 76 42 13 3d 5e 8e 3e 3c
       0.037118305 0.10241855 0.035952054 0.011630623
0000f0 67 53 0a bc 4f 94 4c bd 8a fa 16 be 16 61 5e 3c
       -0.008442736 -0.049946126 -0.1474401 0.013572952
000100 2a 26 19 3d 4b 7e a2 bd 3b be 45 3c a3 6d 9c bd
       0.03738991 -0.07934245 0.01206928 -0.07638099
000110 64 4c 10 bd 66 b4 eb 3c 6f 19 4d bd 0f 6b 96 3d
       -0.0352291 0.028772544 -0.050073083 0.073446386
000120 5a 9e 54 3d b4 ee b7 3d d4 8d 15 be f1 2a 09 bb
       0.05190883 0.08981076 -0.14604884 -0.0020930136
000130 d7 97 a4 3d 81 87 d5 bd 41 7a 06 bd fe 2e 86 3d
       0.08036774 -0.10426236 -0.032831434 0.06551932
000140 c6 f4 fb 3c 99 b7 fe bc 0f f2 0f be 91 8b 25 be
       0.030756366 -0.031093406 -0.14057182 -0.16166522
000150 34 60 4b 3c 0f 2d 9d 3d cd 04 9f 3c 14 68 28 bd
       0.012413073 0.0767461 0.019411469 -0.04111488
000160 87 30 a8 3d db 6d 91 3d 93 fb 29 bb e5 0e 41 bd
       0.08212381 0.071010314 -0.0025937303 -0.047133345
000170 4e f2 5b 3d c5 bc b9 3c be c4 fa bd 9f b0 74 3d
       0.053697877 0.02267302 -0.12244557 0.05973875
000180 ee 92 09 3f 71 dd 50 3f 60 ca 60 be 97 65 34 3c
       0.5373982 0.8158789 -0.219522 0.011010549
000190 2c 97 be 3e 49 f1 dd 3e 4d cd a1 be f6 d3 fa be
       0.3722471 0.43348148 -0.31601945 -0.48989838
0001a0 b9 b3 3b be 54 43 b5 be bf 74 a3 be 30 ef 1d 3f
       -0.18330278 -0.3540293 -0.31925008 0.61693096
0001b0 54 0f 3b bc b8 5c df 3d 93 ea e0 3c 05 00 ee bb
       -0.011417229 0.109063566 0.027455604 -0.007263186
0001c0 2b f4 42 3f 1d a2 61 be d7 e6 ba 3f 97 d6 ac 3f
       0.7615382 -0.22034498 1.4601697 1.3502988
0001d0 cc d3 06 be 7c 48 d2 be ac da 5c 3f 45 14 46 3f
       -0.13166732 -0.41070926 0.86271167 0.7737468
0001e0 ca fe fa 3d a7 47 27 bf 72 e2 f9 bd dd cd 33 3f
       0.122556284 -0.6534371 -0.12201394 0.70236
0001f0 b2 28 1f 3f 93 61 c1 3d b7 84 60 3f d4 63 9b be
       0.6217147 0.09442439 0.87702507 -0.303496
000200 66 b4 91 3e cd 19 4f be 2b cb a1 bf c0 18 5f 3f
       0.28457946 -0.20224686 -1.2640127 0.8714714
000210 27 17 5a 3e ec 7c be 3d 5d 49 cb bd d9 6b 9d bf
       0.21297894 0.09301171 -0.09926102 -1.2298537
000220 3f 13 ab bf 75 f0 4f be c3 45 b6 be db 36 7a bf
       -1.3365248 -0.20306571 -0.356001 -0.9773995
000230 5d ab d3 3e cf 6d 5c be 82 6d 0d 3f b5 73 b2 3e
       0.41341677 -0.21526264 0.5524522 0.34853902
000240 02 8f a5 be b9 b2 28 3f 11 fe 1c 3f 8a da f0 be
       -0.3233567 0.6589771 0.61325175 -0.47041732
000250 c2 06 0c bf 71 91 33 bf 3e d7 1f 3f d2 09 fd 3e
       -0.5469781 -0.701438 0.6243781 0.49421555
000260 7d 05 a0 bf f4 50 fb 3c f4 3d 9d 3b ff 77 83 bf
       -1.2501675 0.03067825 0.004798645 -1.0270995
000270 35 73 0c bf c2 02 c2 bd e0 89 54 be 71 57 c1 bf
       -0.5486329 -0.09473182 -0.2075572 -1.510481
000280 f3 44 4b be 8f 32 91 bf f3 a6 21 bf 48 fb f3 3e
       -0.19850521 -1.1343554 -0.6314537 0.4765265
000290 3f a2 b3 3d c1 a9 15 3e aa 2c 37 be 31 eb 1a 3f
       0.0877118 0.14615537 -0.17888132 0.60515124
0002a0 8e 4a a9 bf 3a 80 6e bf ef 65 a4 3f 76 ae 3e 3f
       -1.3225877 -0.9316441 1.2843608 0.74484956
0002b0 ac 80 18 bf e8 a1 0e 3f a3 d3 30 bf ee 36 e1 be
       -0.5957134 0.557158 -0.6907293 -0.4398722
0002c0 03 0e ec 3c 62 81 95 bd 68 fc a0 bc a1 d2 f3 be
       0.028815275 -0.073000684 -0.019651607 -0.47621635
0002d0 c6 5e 69 3f 15 f9 da be 04 54 0e 3d 23 9d 2b 3f
       0.9116024 -0.4276816 0.034748092 0.67036647
0002e0 6d e2 21 3f 72 f8 99 3e 93 85 22 bf 43 20 90 3f
       0.63236123 0.3007236 -0.6348507 1.1259845
0002f0 48 76 bd 3d fd b3 e0 3f 54 03 5b bf 17 e4 35 3f
       0.09251076 1.7554928 -0.85551953 0.7105116
000300 ee bb 07 bf a9 75 c8 3e cd 52 d6 be 8c 73 7b 3f
       -0.5302113 0.39152268 -0.41860047 0.98223186
000310 2c fe 03 3f 16 43 f4 3d 3f ef ff 3d 34 da 2a bf
       0.5155971 0.11926858 0.124968044 -0.667392
000320 34 53 be 3e 34 ff e6 be 9d 50 7b 3f f3 c5 a2 be
       0.37172854 -0.4511658 0.9816988 -0.31791648
000330 5d cb 52 bf 77 6f 1a bf f8 f6 45 bf fa 87 c7 bf
       -0.8234156 -0.6032633 -0.7732997 -1.5588372
000340 43 34 5d 3d 48 9f c9 be 0b 90 26 bf ea 4b 88 3e
       0.05400492 -0.39379334 -0.6506354 0.26620418
000350 8b a5 fa be 15 b9 04 3f a5 2b 28 3e 19 f8 2d 3e
       -0.48954424 0.5184491 0.16422899 0.16989173
000360 eb 96 b2 3c 4d 7a e5 be 00 91 28 3f d5 3e 62 3d
       0.021800479 -0.4481987 0.6584625 0.055235703
000370 15 23 0f 3f 19 41 78 3f 8a e0 c4 3d e7 e3 d8 be
       0.55912906 0.9697433 0.0961314 -0.42361376
000380 d1 4e a9 3e 43 f8 72 3e 0e 07 04 bf b1 04 17 40
       0.33067945 0.23727517 -0.51573265 2.3596613
000390 9f e9 91 3d 3b 81 e1 be 8d ac c4 3e 91 7d fe be
       0.07124638 -0.44043908 0.38412896 -0.49705175
0003a0 90 86 38 3d f3 38 fb bf 6e ab da be fc ef 09 3f
       0.045050204 -1.9626755 -0.42708915 0.5388181
0003b0 8d 4a 74 3c e4 8a 40 be 8d eb 89 bf 5e 33 c0 3c
       0.014910352 -0.18802983 -1.0775009 0.023461994
0003c0 a2 80 09 be b8 be a3 3e 6b a5 ff bd 21 af 82 be
       -0.13427976 0.31981444 -0.12482723 -0.25524238
0003d0 48 1a 56 3e 57 5b 17 3e ed 40 22 bf f4 18 36 bf
       0.20908463 0.14780937 -0.6338032 -0.71131825
0003e0 ec 17 3e bf 37 b3 93 be c4 f0 ba be 11 e7 d8 be
       -0.7425525 -0.28847668 -0.36511815 -0.4236379
0003f0 bf f2 1a bf 50 8f 4f 3e ce 93 a3 3f ed c4 bf be
       -0.6052665 0.20269513 1.2779481 -0.3745493

rnn.weight_ih_l0 f4 [256, 36]
000000 79 c4 49 3e d3 3f ed bd 72 d3 86 be 43 7b 48 3e
       0.19703855 -0.11584439 -0.26333195 0.1957827
000010 d0 82 32 be 82 13 43 3e aa ba 8c be b6 6a f6 3c
       -0.17432714 0.1905041 -0.27486163 0.03008018
000020 ea 61 5b 3d 2c 03 e8 bd e5 ff bc 3d 4c a9 c8 3d
       0.053560175 -0.1132873 0.092284955 0.09797916
000030 f9 c7 0f 3e 9e 60 f3 3d 5b 4d 9a bc 36 5b 9a be
       0.14041127 0.11883663 -0.018835714 -0.30147713
000040 3b 70 26 3c 11 19 53 bf e1 0c 1a 3e d9 1a 23 bd
       0.010158594 -0.82460123 0.15043975 -0.039820526
000050 a4 2a e0 bd 0f 2f 9e 3e b8 7d 9f 3d b2 3b 7d be
       -0.10945633 0.30895278 0.07787651 -0.24729803
000060 86 32 39 be 57 c6 90 3e b1 19 e8 bd eb f7 79 3c
       -0.1808568 0.2827632 -0.11333025 0.015256862
000070 9b b3 55 be ae d0 05 3e f9 f2 4f 3d 0c 28 47 be
       -0.20869295 0.13067886 0.050768826 -0.1944887
000080 70 48 68 bf 7a be 95 3f cb ff 87 3f 3c 97 c6 3f
       -0.9073553 1.1698754 1.0624937 1.5514903
000090 ce 3f b7 3e 4e c4 99 bd 71 99 8b 3c 7c e1 0f 3d
       0.35790867 -0.07508145 0.01704094 0.035127148
0000a0 c2 4c 02 3c 67 73 20 3d 0c 34 96 bd 64 ff f4 bc
       0.007952871 0.039172556 -0.07334146 -0.029906936
0000b0 45 2f ca bd 09 d9 b5 3d 6d bc 97 be d4 d4 c2 3d
       -0.09872297 0.08879287 -0.29635945 0.0951325
0000c0 52 8a 11 3c 03 b9 da 3d ab ad 86 3e 3f 98 6e 3e
       0.008883076 0.106798194 0.26304373 0.23300265
0000d0 1e 37 d1 bd 71 b9 41 3d 7b 42 e4 bc 1d c2 ee 3c
       -0.10215591 0.04729599 -0.027863732 0.029145295
0000e0 dd 45 6c 3d a7 cd 93 bc 21 a0 3c 3e 96 a0 76 3d
       0.057683814 -0.018042399 0.1842046 0.06021174
0000f0 e9 e1 50 3e dd 18 11 3e db 6d 63 bd 9b d4 f9 bc
       0.20398678 0.14169641 -0.05552469 -0.030496886
000100 5f 0a 7b 3e 4d 5e 11 be 57 58 08 be 67 14 da 3d
       0.24515675 -0.14196129 -0.13314949 0.10648423
000110 59 f4 25 3f 7f c0 ed 3c 04 3c 64 3d e6 77 a4 3f
       0.6482597 0.029022453 0.055721298 1.284909
000120 45 fc b2 3d 75 e9 cf 3e 0e 28 ac 3e 71 e0 0f bf
       0.08739523 0.406078 0.3362431 -0.56201845
000130 15 77 83 be 22 bc a7 3e 22 98 90 3e 27 4b 42 be
       -0.2567679 0.3276072 0.28241068 -0.18973981
000140 32 a3 ac 3c 64 c2 81 3f ce 7f f3 bd 4e ac 46 bd
       0.021073911 1.0137448 -0.11889611 -0.048504166
000150 fb 8b 92 3d d2 05 6a be 6d 4b 70 3e b4 18 87 3e
       0.071556054 -0.22853783 0.23466273 0.26386034
000160 15 52 f8 3d 30 09 97 3d 36 45 5d 3e 78 a3 cb 3d
       0.12125031 0.07374799 0.21608433 0.099432886
000170 18 a1 67 be b8 c9 ac 3d f9 7e 1d 3d 03 71 80 3f
       -0.22620046 0.08436912 0.03845117 1.0034488
000180 c7 65 ba bd f0 6d 76 3e c8 7c 47 be 93 fd cd 3e
       -0.09101444 0.24065375 -0.19481194 0.40232524
000190 81 bd 53 3e b0 26 4e 3e 58 5f 48 3c 94 06 05 3d
       0.20677759 0.20131946 0.012229763 0.032476977
0001a0 00 e0 13 3f 60 ce 07 3f 85 fa 08 3f 10 5d e7 bf
       0.5776367 0.5304928 0.5350726 -1.8075275
0001b0 b6 a4 8b 3e 72 2c 8a bb 42 55 ae 3e 96 96 61 be
       0.27274102 -0.004216724 0.34049422 -0.220301
0001c0 5a 65 e4 3d a3 ce 8a 3d 9e 5c 0e be b4 43 06 be
       0.11152144 0.06777694 -0.13902518 -0.13111764
0001d0 b4 36 89 3d e5 86 ae be f4 6e 94 be 43 b2 0a 3f
       0.06699887 -0.3408729 -0.289909 0.54178256
0001e0 08 55 3c be 74 cb 70 3d cc 4e d2 be 91 46 c4 3e
       -0.18391812 0.058787778 -0.41075742 0.38335088
0001f0 bb 12 94 3d bb 47 86 3c ed d5 9d bc 06 66 33 bc
       0.07230135 0.016391626 -0.019267047 -0.010949617
000200 8f 0b 6d be cc 47 79 3e ee 4c 43 3e cd d6 20 3d
       -0.2314894 0.24343795 0.19072315 0.03926735
000210 e6 0b b0 3e 0e 3a 36 bd d6 8f 9d be 57 ae 3d 3e
       0.34384078 -0.04448896 -0.307738 0.18523537
000220 bb cf 1c be 30 b8 4c bb ff 0c 26 3e df 55 3e 3e
       -0.15313618 -0.0031237714 0.16215895 0.18587445
000230 be f7 19 3f bd 8f 07 3f 47 8e 03 3f 18 0b 62 bf
       0.6014365 0.529537 0.51388973 -0.8829818
000240 23 c7 8b be 13 ce 07 be 76 85 36 3e b3 43 98 be
       -0.27300367 -0.13262205 0.17824349 -0.2973915
000250 dc b7 5e 3e 0d c5 94 3d 93 7b 28 3e 92 66 c8 3e
       0.21749824 0.07264147 0.1645339 0.39140755
000260 45 dd 2c 3e 2e 27 e8 3e de 1b 38 3e ad 01 f5 bd
       0.16881283 0.45342392 0.1797938 -0.1196321
000270 45 04 d0 bd 85 0d 9d 3e 72 fa be 3e 29 20 61 bd
       -0.10157064 0.30674377 0.3730045 -0.05496231
000280 5a 57 c5 be a7 e7 3d 3e 2b 75 15 bf 17 fd 53 3d
       -0.38543206 0.185454 -0.5838191 0.051755037
000290 9f a9 4a be 91 3e b3 3e 32 8c 18 be 32 00 81 bd
       -0.19791268 0.35008672 -0.1489723 -0.062988654
0002a0 75 48 23 3e 92 6b f1 bc 4c 08 d2 bd 80 b4 28 be
       0.15945609 -0.029470239 -0.10255489 -0.16475105
0002b0 e5 2e 67 be 7e 9a 24 3e 85 6c cf be ef ae ba 3d
       -0.22576483 0.16074559 -0.4051248 0.09115397
0002c0 ae 97 89 3f 9f 2e 43 bd 9b af c0 3c 1b f2 89 bf
       1.0749414 -0.047651883 0.023521235 -1.077701
0002d0 d7 a2 f8 3e 56 0f ae 3e 13 52 14 bf 2f bc 15 bd
       0.48561737 0.33996075 -0.57937735 -0.03655642
0002e0 56 d7 59 3c f9 01 e8 3d 23 65 c3 bd 64 99 c9 be
       0.013295969 0.11328501 -0.09540775 -0.3937484
0002f0 fc 73 90 3e 6d 34 f6 bc 37 1f 1d 3d 00 61 6e bd
       0.2821349 -0.030054295 0.038359847 -0.058197975
000300 74 09 cb 3e a6 61 0a 3f 60 28 bd be 9f af 81 3e
       0.3965565 0.5405525 -0.36944866 0.253293
000310 a6 41 c1 3e 9c ce 98 3c f2 d5 f3 3d 47 d5 d1 3d
       0.37745398 0.018653207 0.11906041 0.102457576
000320 a2 7f 11 bd 41 e5 1e bf 0b 79 9a 3e 83 74 2c 3e
       -0.03552211 -0.62068564 0.30170473 0.1684132
000330 f8 d9 23 bf b7 94 ec 3e b2 0e 9c 3e 97 ed d2 bd
       -0.6400447 0.4620721 0.30479962 -0.10299223
000340 75 da ef bc bb 5b 3f be 96 07 70 3e 74 ed be 3d
       -0.029278973 -0.18687336 0.23440394 0.09322634
000350 f9 db e6 bf b1 63 54 3f aa 47 46 3f e3 82 f3 3e
       -1.803588 0.82964617 0.774531 0.47560796
000360 78 63 e9 3e 4a ed bd 3c a2 3a 3b 3d 4c ba 24 3e
       0.455837 0.023184437 0.045710213 0.16086692
000370 05 8f f6 3e 7f 16 3b 3e c9 ce dd bd ec e9 29 bd
       0.4815599 0.182703 -0.10830457 -0.04148285
000380 13 a0 23 3e 73 d1 e1 be 12 c9 1a 3f 71 d3 8b 3e
       0.15979032 -0.4410511 0.6046306 0.27309754
000390 fc 81 12 be 79 d1 d2 bd e0 04 af be 4b 95 cc 3c
       -0.14307398 -0.1029386 -0.34183407 0.024973532
0003a0 46 d6 65 3e 9b 9b ad be 67 6b 6d 3d 1f 8c bd be
       0.2244502 -0.3390778 0.057963755 -0.37020966
0003b0 29 80 8b 3e cf af 49 bc cd 71 ae 3d 96 07 92 be
       0.27246216 -0.012309982 0.085177995 -0.28521413
0003c0 47 73 a6 3e 24 4e dd bd 26 d2 0d 3e bf 7a ea bd
       0.32509825 -0.1080592 0.13849697 -0.11449193
0003d0 07 4a 94 3d 42 4e 48 3f f7 5f 57 be 85 c3 99 3e
       0.07240682 0.7824441 -0.21032701 0.30031982
0003e0 19 8b 95 3f 5a bf 7f bf ef 19 87 bf 6e 41 1c bf
       1.1683074 -0.99901354 -1.0554789 -0.6103734
0003f0 5b eb 1b 3e 11 ee 93 be 23 d3 ac bb f2 a3 1f be
       0.152265 -0.28892568 -0.005274193 -0.15589884

rnn.weight_hh_l0 f4 [256, 64]
000000 43 fa 26 be 72 e0 53 bc 52 23 68 3c c8 55 8e 3e
       -0.16306405 -0.01293193 0.014168577 0.2779982
000010 90 8c 5a be f8 03 32 be fc 92 0f bf 1f e2 06 bf
       -0.21342683 -0.17384326 -0.56083655 -0.52688783
000020 f8 98 3f 3d b6 78 ce be 3d fe a5 3e 3f 84 c6 3e
       0.04677674 -0.4032647 0.3242053 0.3877277
000030 41 f9 cd be 5c 0f 50 bc cf b5 01 3e 3c d0 1c be
       -0.40229228 -0.012698974 0.1266701 -0.1531381
000040 0f 34 46 bf 0d dc cd be 73 4b 9e bc 1e c1 92 be
       -0.77423185 -0.40206948 -0.019323086 -0.28662962
000050 3a 2a 92 3e 7a 3e 21 3d 46 6c 26 bd 67 13 1b 3f
       0.2854784 0.039366223 -0.0406306 0.6057648
000060 e8 6c 81 be 86 9c 0b be 00 9c 88 3e ac 96 43 3e
       -0.252784 -0.13633928 0.2668152 0.19100446
000070 4d 09 a1 3e 1c 5c c0 3e 4e 65 1b be 40 2e 00 3f
       0.31452408 0.37570274 -0.15175363 0.5007057
000080 d4 43 c6 be 91 c1 93 3d 56 c1 de 3e 97 f4 3a be
       -0.38723624 0.07214654 0.4350688 -0.18257366
000090 06 03 dd 3e 69 d3 48 3e 4a 7b 23 be a5 ad 7c 3d
       0.4316637 0.19611897 -0.15965 0.061689038
0000a0 bc fb b7 be f0 38 93 3e e6 20 56 3f 83 50 d9 3d
       -0.35934246 0.28754377 0.8364395 0.106110595
0000b0 39 15 53 be 2f 20 ed 3e 21 79 1a be 39 ab e5 bc
       -0.20613565 0.46313617 -0.1508527 -0.028035747
0000c0 73 f7 7f bd af 1c c0 be 08 2c fd be 9a 8c 5f bf
       -0.062491845 -0.37521884 -0.49447656 -0.87323916
0000d0 8f 92 42 be 4d f1 b9 3d ee 3d 6e bd 7a e5 62 be
       -0.1900122 0.090792276 -0.05816453 -0.22157851
0000e0 e0 93 83 bd 0c b2 e9 3e ea 39 36 bf 16 8e e6 3d
       -0.06424689 0.4564365 -0.7118212 0.112575695
0000f0 04 01 07 bb 7d d3 45 bf 00 be b6 3d b5 b4 06 bf
       -0.002059997 -0.7727583 0.089229584 -0.5261949
000100 68 04 07 bf 68 37 e4 3e ce c0 be bd 7b ca bd be
       -0.527411 0.44573522 -0.09314118 -0.37068543
000110 a1 ed c4 be 70 9e 37 be 96 05 07 3f dd a9 5d 3d
       -0.38462546 -0.17931533 0.527429 0.054117072
000120 4a f2 ef bd cb a9 09 be 65 56 7e 3e 8e 51 85 bc
       -0.11716135 -0.13443677 0.24837644 -0.01627424
000130 4d 44 96 3e 9d e0 64 be 0e 9d e9 be 5e f5 e8 3e
       0.29348984 -0.22351308 -0.45627636 0.454997
000140 9a 3e 91 3d d4 93 37 be d6 9e b4 3e 99 5d d2 3e
       0.070920184 -0.17927486 0.35277432 0.41087034
000150 25 3f df 3d 8d 31 d7 3e 55 32 7e 3c 3d ab ad be
       0.10900716 0.42029992 0.01551493 -0.33919707
000160 25 98 ad be 99 56 e9 3d 93 6d 50 be 19 f9 4a be
       -0.3390514 0.1139347 -0.20354299 -0.19821586
000170 00 15 97 3d c5 87 11 3f 6a 65 93 bd 05 42 be 3e
       0.07377052 0.5684779 -0.071970776 0.37159744
000180 60 8c 32 bf 96 b3 8e be e1 75 40 3d b8 69 9d bd
       -0.69745445 -0.27871388 0.046987418 -0.0768618
000190 2b 16 ac be ec 1f 9b 3e da 10 f1 bd 8c 58 9b 3c
       -0.33610663 0.30297792 -0.11770792 0.01896312
0001a0 58 3e 90 3c 5d 8b 80 3e 8f 59 de be 55 b0 e6 3d
       0.017607853 0.25106326 -0.43427703 0.112641014
0001b0 53 44 74 3e a5 4d 86 be 70 27 67 be 1f b6 db be
       0.23854189 -0.26231113 -0.22573638 -0.42912385
0001c0 79 d1 86 3e 51 78 10 3e ae 6c 57 3d 4b 43 e7 3e
       0.2633169 0.14108397 0.05259388 0.45168528
0001d0 16 88 ab 3e 95 9f 33 3e 90 66 5f bd ea 61 84 3f
       0.33502263 0.17541344 -0.05454117 1.0342381
0001e0 31 5e c8 be 56 7c 5a 3e 59 0d bf be a3 0a ce bd
       -0.39134362 0.21336493 -0.3731487 -0.100606225
0001f0 2f 27 99 3e 0b c3 0c 3d 54 5f db be c1 9a 23 bf
       0.29912707 0.034365695 -0.42846167 -0.6390801
000200 35 a2 0f 3e 81 0f 34 3e 64 36 e8 3d 0c 59 4f 3e
       0.14026721 0.1758404 0.11338499 0.20248812
000210 f3 0e 8e be 3d 88 c5 3e ea e9 c2 be dd f3 90 be
       -0.2774578 0.38580504 -0.38069087 -0.28311053
000220 fe 12 94 be 03 9a 42 bc 2c 88 e7 3e d0 3b bd 3d
       -0.2892074 -0.01187754 0.45221078 0.09239924
000230 60 de 77 3d 84 2b e5 3e 0c fb 12 be 0b f5 cc bd
       0.060514808 0.44759762 -0.1435358 -0.10007676
000240 bb 81 8b 3e 6b 93 cf be d5 f2 7d 3d 64 0e 2d be
       0.27247414 -0.40542158 0.06199916 -0.16900021
000250 41 94 c9 be 98 02 4e 3e e8 ed 59 bc 83 fb 5f 3d
       -0.3937092 0.20118177 -0.01330135 0.05468322
000260 54 4d c9 be 70 ff d7 3e 7a 7b 97 3d 9d 12 02 3f
       -0.3931681 0.4218707 0.07396598 0.5080965
000270 6c a9 14 3e 1f 48 8b bc 8b be 12 bd 47 5a fb bb
       0.14517754 -0.017002163 -0.035826247 -0.007670674
000280 8c 08 1d bf 76 27 c3 be 59 f5 85 be 4a d8 71 3d
       -0.61341166 -0.38116044 -0.26163748 0.05904416
000290 15 8b c4 3e bb ee f4 bd b6 7f 11 3e 67 5f 08 3f
       0.3838736 -0.11959597 0.14208874 0.5327057
0002a0 ca 3b 25 be 86 f9 f2 bd bc bd 71 3d 83 b1 5f bc
       -0.16136089 -0.11863999 0.059018835 -0.013653162
0002b0 b0 aa c0 3e a6 c8 0f 3f 79 7b 00 bf 29 2c 50 be
       0.37630224 0.5616554 -0.50188404 -0.20329346
0002c0 15 37 79 bc c7 fa 98 3e e3 67 00 bf c4 9b 94 3e
       -0.0152108865 0.29878828 -0.5015852 0.2902509
0002d0 85 5e 63 be e2 ae 63 be 11 89 05 bf e7 4e b8 3d
       -0.22204025 -0.22234681 -0.5216227 0.089994244
0002e0 ed a0 b1 bd 66 6d 98 3e 3b 77 13 bf 77 e0 24 3f
       -0.08673272 0.29770964 -0.57603806 0.64405006
0002f0 8b fc 83 bd 64 8c a8 be 00 01 62 3e 51 32 6d 3e
       -0.06444653 -0.3291961 0.22070694 0.23163725
000300 42 19 80 bd 26 3a bb 3d 59 7d a8 bd 04 df 43 bf
       -0.062548175 0.0914195 -0.08227033 -0.7651217
000310 4b d5 58 3f 7f f8 6a be 92 85 a8 3d 67 92 64 3e
       0.8470046 -0.22946356 0.082286015 0.22321473
000320 c1 47 e9 3c 12 55 12 3e 53 3b 00 3f d9 8b 7b 3c
       0.028476598 0.14290264 0.5009052 0.0153531665
000330 cc a5 1e 3f 2a c9 3e 3e a8 fc 47 bb e7 bb 8e be
       0.61971736 0.18631425 -0.0030515585 -0.27877733
000340 b5 b9 42 be 77 44 ce be 08 1e 07 be 09 25 78 bd
       -0.19016154 -0.4028661 -0.1319505 -0.060582194
000350 f8 08 81 3f 5a 0d b7 be 82 f5 3d bf 18 9c 9a 3c
       1.0080862 -0.35752374 -0.7420274 0.01887326
000360 30 92 ff bd 86 04 15 3e 3c 96 d3 be ae 8a bc bd
       -0.12479055 0.14552507 -0.41325557 -0.092061386
000370 51 32 d7 3d 50 3c 8e be 69 33 99 be 48 11 ea 3c
       0.10507644 -0.2778039 -0.29922035 0.028572693
000380 2a ee fb be d6 bd 1c 3e 52 5c d4 be e6 4f 3b 3e
       -0.49205142 0.15306792 -0.41476685 0.18292198
000390 30 98 40 bf 3c 93 79 3d c0 ea 5c bf 57 1f 26 bf
       -0.7523222 0.06093143 -0.862957 -0.6489157
0003a0 77 47 1c 3f ec c6 23 3e 9e ad b5 3f 6e 39 54 3f
       0.61046547 0.15993851 1.4193609 0.8290013
0003b0 06 99 9f be 2b 22 36 3f dd 1a 90 3e 39 03 b7 be
       -0.31171435 0.71145886 0.28145495 -0.35744646
0003c0 04 05 0d 3d 0f 39 18 3e 75 75 14 bf 2f 63 3d 3f
       0.03442861 0.14865516 -0.57991725 0.7397947
0003d0 d0 0e d0 bf bf d3 bd 3e 79 d6 8e be c5 15 b2 be
       -1.625452 0.37075612 -0.27898005 -0.34782234
0003e0 a6 1a 2b be a4 31 2f bf 55 3f 63 be 9a 84 92 be
       -0.16709384 -0.6843512 -0.22192128 -0.28616792
0003f0 1c 97 92 bf f0 88 09 bf f7 11 95 be 19 e4 dd 3e
       -1.1452365 -0.53724575 -0.2911527 0.43338087

rnn.bias_ih_l0 f4 [256]
000000 a5 58 5f 3e b0 12 9b be 26 c4 bc 3e 76 97 cb 3e
       0.21811159 -0.30287695 0.368684 0.39763993
000010 b6 64 a8 3e 5d 0a bb bc 37 b3 16 3e 86 54 3d 3e
       0.32889336 -0.02283209 0.14716803 0.18489274
000020 03 45 4e 3e 33 52 50 bd 53 e9 02 3e c8 6b 93 3d
       0.20143513 -0.05085964 0.12784319 0.07198292
000030 1f c9 19 3e 9f f9 90 3e a8 ae 13 3f 50 a3 bb bb
       0.15018128 0.28315446 0.5768838 -0.0057262555
000040 7e 78 7f 3e 93 a3 ef bd b4 19 58 3e 99 7f 0f 3e
       0.24948308 -0.11701121 0.21103555 0.14013518
000050 ff 31 29 be 4e 98 c1 be cd 75 79 be ab 31 9c 3e
       -0.16522978 -0.37811512 -0.24361344 0.30506644
000060 ff 29 0c 3e 0a f4 a5 3e b9 06 19 3f 99 fc c1 bd
       0.13687895 0.3241275 0.5977588 -0.09472007
000070 0e 11 da 3e 8c b1 00 bd 44 d6 d1 bd a8 08 a8 3e
       0.42591137 -0.031419322 -0.10245946 0.32819104
000080 af 67 a6 3e 37 26 af bd 55 b6 9b bc 6f 5a 0a be
       0.3250098 -0.08552211 -0.019007841 -0.1351106
000090 ff ec d6 3e 38 ea 98 bd 36 6b c5 3d 34 34 84 bd
       0.4197769 -0.07466549 0.096395895 -0.064552695
0000a0 d0 09 09 3e 55 e6 3b 3e 2d 8d d9 3e 74 5e 90 3e
       0.1338265 0.18349583 0.4249052 0.28197062
0000b0 63 63 41 3e 5f a1 09 3e 99 0e 82 3c 89 51 9a 3e
       0.1888557 0.13440464 0.015876101 0.3014033
0000c0 70 14 3c 3e 3d c8 99 3e 09 37 3c 3e 3d 13 52 be
       0.18367171 0.30035582 0.18380369 -0.20515151
0000d0 3b 02 f4 3e b4 a8 0d 3e 5a 74 8f be ba c3 5a 3e
       0.47657952 0.13833886 -0.28018457 0.21363726
0000e0 0b ae 15 3e 24 f0 00 3e 19 cd de 3e c9 91 bf 3e
       0.14617173 0.12591606 0.43515852 0.37415913
0000f0 92 73 5c 3e 2e 31 29 be b9 35 eb 3e 82 d4 57 bd
       0.21528462 -0.16522667 0.45939425 -0.052692898
000100 4d 7e 84 bd 67 d9 bf 3e 94 88 f1 be 9f ba 23 be
       -0.064694025 0.37470552 -0.47174513 -0.15989159
000110 3e 7d ac be 55 2e b8 bd d9 bf cf bd ff f1 b4 be
       -0.33689302 -0.08993212 -0.10144014 -0.35340878
000120 f8 c4 6c bd ca 58 0c bf b8 f3 f9 bd 8c 54 e2 3d
       -0.05780503 -0.5482298 -0.12204689 0.11051282
000130 15 82 17 be 8a 0f 30 bd 3a df d5 be c1 81 4c be
       -0.14795716 -0.04298357 -0.4177187 -0.19971372
000140 01 2c a3 bd 1a da d9 be b1 24 5c be 23 7d 6f be
       -0.079673775 -0.4254921 -0.21498372 -0.2338758
000150 92 03 8f 3e f0 fc b7 3e e9 b5 0b 3e 07 19 bb 3e
       0.2793241 0.35935163 0.13643612 0.36542532
000160 ec 8b 2c bf 6b 87 0e be 45 33 5b 3e d8 45 4f be
       -0.67401004 -0.13918845 0.21406277 -0.20241487
000170 7d 10 95 3d 70 eb 26 be a0 7a 62 be 94 a3 99 3d
       0.072785355 -0.1630075 -0.2211709 0.07501903
000180 09 1b 5c be ec 2d 09 be 87 0a 36 3d 28 ab c9 be
       -0.21494688 -0.13396424 0.044443633 -0.39388394
000190 e6 c8 53 be f1 1b 49 3d 7d ce 1e be b3 39 c5 3d
       -0.20682105 0.049098913 -0.15508457 0.09630146
0001a0 01 e4 40 3e b7 c3 68 be 93 69 ba 3e 83 6e f3 be
       0.18836977 -0.2273091 0.36408672 -0.4754525
0001b0 f5 8b b0 bd 36 31 f2 bd eb 5b 4f be f4 1f d0 be
       -0.08620445 -0.118257925 -0.20249908 -0.40649378
0001c0 08 5b 73 bd f5 1f 4c be a5 34 05 bf 98 de d6 be
       -0.059412986 -0.19934066 -0.52033454 -0.419667
0001d0 7c c6 b6 3e d2 13 a0 bc 57 f0 33 be 87 e1 1b be
       0.35698307 -0.019540701 -0.17572151 -0.1522275
0001e0 80 53 6b bd 5c e9 38 bd 35 95 93 bc 5b e6 89 be
       -0.05745268 -0.045144424 -0.018015483 -0.2693356
0001f0 64 78 89 be 2e b4 2e 3e 7c 10 ef be 54 bd 36 bf
       -0.26849663 0.1706092 -0.46692264 -0.7138264
000200 2a 25 71 3e 3e cd 63 3d 5e d6 26 3e ec ca 8a be
       0.23549333 0.055615656 0.16292712 -0.27107942
000210 a8 47 46 3d 63 6b 7c bd 1f f5 08 bd 72 f6 5d 3d
       0.04840818 -0.06162585 -0.03343689 0.054190107
000220 a3 ea 01 3e e4 94 72 3e 1a ad dc bd 8c b7 56 be
       0.12687163 0.2368961 -0.10775204 -0.20968455
000230 7c c8 7c be ad 12 f1 bd eb 07 53 3d 6f 96 89 3e
       -0.24685854 -0.1177114 0.051521223 0.26872584
000240 59 39 24 3d 01 c5 01 bb e2 b1 00 bd 01 52 b1 3d
       0.040093753 -0.0019801261 -0.031419642 0.08658219
000250 cc b7 aa bd d2 e9 1e 3e 60 15 92 bc 33 1b 09 3f
       -0.08335838 0.15518883 -0.017832458 0.5355713
000260 4b 1e 0c 3e 6c 22 1d 3e d8 23 d3 bd 31 ff 19 3e
       0.13683431 0.15345162 -0.10309571 0.15038754
000270 ed 07 1a 3e 98 c4 09 be de a7 ed b8 14 e1 e8 bc
       0.15042086 -0.13453901 -0.00011332308 -0.028427638
000280 52 fd 75 3e d7 8b 64 3e 5c 31 42 bd 4a da f5 bd
       0.24022415 0.2231897 -0.047410354 -0.12004526
000290 f8 e4 29 3d 2e dd 4d bd 24 b3 d9 3d 3d 99 f8 3d
       0.041478127 -0.05025976 0.106298715 0.12138603
0002a0 60 a1 8b be 14 d0 24 be 61 90 78 3d 05 f0 44 be
       -0.27271557 -0.16095 0.060684565 -0.19232185
0002b0 80 94 ac 3e d3 87 70 be d7 5d 48 3e 87 60 64 be
       0.33707047 -0.23489313 0.19567047 -0.22302447
0002c0 6c f2 a3 3d c5 1f c8 bd b5 04 16 3d ce a2 31 3c
       0.08005223 -0.097716846 0.036625583 0.010842038
0002d0 26 ed 03 be 6b d5 27 be 0f 33 89 be bf a0 84 3c
       -0.12883434 -0.16390006 -0.26796767 0.016189931
0002e0 32 d2 33 3e e9 e1 9c bc 51 9e 80 3d 4b c7 01 3e
       0.17560652 -0.019150691 0.062801965 0.1267368
0002f0 78 41 a3 bd fd 39 69 be 22 34 be bd ef af 82 3e
       -0.079714715 -0.22776027 -0.09287287 0.25524852
000300 4c 2c c8 bd 7b 89 f3 3c 0a cc aa 3e 5e 13 6d 3e
       -0.09774074 0.029728642 0.33358794 0.23151919
000310 06 80 41 3e dc 7b 73 3d 1a d7 90 3d af 39 a7 3e
       0.18896493 0.059444293 0.07072277 0.32661197
000320 a0 67 33 3c e6 ec aa bd ba 19 94 3e 2e ab 90 be
       0.010949999 -0.08345966 0.28925878 -0.282556
000330 4b c4 cd 3e 12 a0 0f 3f fe 89 85 3e 4a 46 f0 bc
       0.40188822 0.5610362 0.26081842 -0.029330391
000340 b5 1b 08 3f 00 d6 c6 3e 3a 60 9a 3e 2b 78 21 3f
       0.5316728 0.38835144 0.3015154 0.63073987
000350 5b 8f 80 3e 91 d4 ae 3e d0 96 b4 3c 1d f9 20 bf
       0.25109372 0.3414655 0.02204457 -0.62880117
000360 0a 24 bd be 16 c8 1b 3e 30 f4 a2 be d0 43 25 3e
       -0.36941558 0.15213045 -0.31826925 0.1613915
000370 22 27 ee 3d 75 c1 12 3f 17 d9 23 3d 61 f1 60 3e
       0.11628558 0.5732644 0.040001955 0.21967079
000380 9c d9 b0 3e 21 8b e5 3d 9a 5d 9b 3d 7b 58 7c be
       0.34541023 0.11208177 0.075862125 -0.24643128
000390 6a ab a6 bd 52 21 b8 bd ce c9 a0 3e d6 20 b2 3c
       -0.081381634 -0.0899073 0.31403965 0.021744173
0003a0 68 4b 3a bf e7 56 96 3e 3b 91 cc be 3e b5 17 3e
       -0.7277131 0.29363176 -0.39954552 0.14815232
0003b0 3d 45 74 be f7 63 0e 3e ad 89 da 3d 34 fd 2a 3e
       -0.23854537 0.13905321 0.10670791 0.16698152
0003c0 e1 1e 28 3e 94 4c 2c bd 67 6a 06 3f 86 6d b3 be
       0.1641803 -0.042065218 0.5250611 -0.35044497
0003d0 20 43 02 bf db 21 aa 3e 3f dd 0f 3e ee b8 81 be
       -0.50883675 0.33228955 0.14049242 -0.25336403
0003e0 d1 dc 6b 3e 76 b9 26 3f ff 8c 91 3e 8d b2 a0 be
       0.23033454 0.6512674 0.28427884 -0.31386223
0003f0 dd ce ce 3c 12 0f 60 3e 1e e3 ac 3e b1 d5 a4 bd
       0.025245124 0.21880749 0.33767027 -0.08048571

rnn.bias_hh_l0 f4 [256]
000000 fa c4 60 3e a2 df 5d be 12 ee 00 3f 55 41 97 3e
       0.2195014 -0.2166734 0.50363266 0.29542032
000010 1a 44 4b 3e e3 fe 89 bc c6 56 23 3e f9 8d 37 3e
       0.19850197 -0.016845172 0.1595107 0.17925252
000020 a6 39 05 3e c2 3a 14 be 37 ab 9b 3e 26 d1 10 3d
       0.13010272 -0.1447554 0.30404064 0.03535571
000030 ae db 67 3e bf 97 87 3e 9e 29 c4 3e 4e 76 47 3c
       0.22642395 0.2648296 0.38313 0.012174202
000040 f6 71 de 3e 3c ac f9 3d a7 84 b2 3e e1 7e 58 3e
       0.4344632 0.12191054 0.3486683 0.2114215
000050 5e 54 94 be 4a 85 83 be 91 18 81 be f0 5a 88 3e
       -0.28970617 -0.2568763 -0.25214055 0.2663188
000060 73 00 86 3e c5 a9 a4 3e 97 af 2f 3f 14 bc 39 bc
       0.26172218 0.32160774 0.68627304 -0.011336345
000070 3a 6c f6 3e 6c bc 3c 3a f6 e2 96 be 46 0d bd 3e
       0.48129445 0.0007199708 -0.29470032 0.3692419
000080 99 70 9f 3e 07 49 97 3c a7 29 e0 3c 10 9e 6c be
       0.31140593 0.01846744 0.027363611 -0.23107171
000090 db 24 b5 3e 6a 58 8a be 18 33 d4 3c 45 f1 e5 3d
       0.3537968 -0.2702058 0.02590327 0.11227659
0000a0 f5 d6 1a 3e b5 6e 3c 3e 7b 86 c6 3e 89 0b 9c 3e
       0.15121062 0.18401606 0.38774475 0.3047755
0000b0 7b 03 8a 3e 38 8e 04 3e 7c bf e2 3b 3d 50 30 3e
       0.2695578 0.12944877 0.0069197994 0.17218108
0000c0 c3 92 cc 3d bc 1a 9b 3e 4e 1d aa bc 31 00 56 bd
       0.0998893 0.30293834 -0.020765927 -0.052246276
0000d0 42 39 e0 3e 52 7c 28 3e de de 63 be b6 df a6 3d
       0.43793684 0.16453674 -0.22252986 0.08148138
0000e0 1c 49 3f 3e 86 b6 eb 3c 2b 6f 9a 3e 48 3a b1 3e
       0.18680233 0.028773557 0.3016294 0.34614778
0000f0 fb 63 1d 3e e9 13 a7 be 83 ae 0a 3f 76 b8 f0 3d
       0.15370171 -0.32632378 0.54172534 0.11753933
000100 eb d4 88 3d ce 42 de 3e a3 58 10 bf 43 bb 4b be
       0.06681236 0.43410343 -0.5638525 -0.19895653
000110 04 f8 a1 be 98 3e 0a be 11 f7 24 be 79 83 80 be
       -0.31634533 -0.1350044 -0.16109873 -0.25100306
000120 fc 18 02 be 9b e4 19 bf 39 a4 7f be d2 6d bb 3d
       -0.12704843 -0.6011445 -0.2496499 0.09151806
000130 e7 18 8a bd dd 8c 28 be 48 7a c1 be 40 b9 4c be
       -0.06743031 -0.16459985 -0.37788606 -0.19992542
000140 aa f7 4f bc 33 4a 5b be 28 21 88 be 5e d2 d7 bd
       -0.012693325 -0.21415024 -0.26587796 -0.10538171
000150 9f c1 63 3e e1 eb 4a 3e 83 c2 c6 bc 50 4e 99 3e
       0.2224183 0.19816543 -0.024262672 0.2994256
000160 59 e3 1d bf 72 43 02 be b4 cf 41 3e d5 29 11 bd
       -0.6167503 -0.12721041 0.18926889 -0.035440285
000170 37 e6 71 3d 1d 33 a4 be 8a d9 9f be f1 dc 07 3e
       0.05905744 -0.32070246 -0.31220657 0.13267876
000180 c2 25 32 be d3 fc aa be f9 c0 33 3e 7c 55 b8 be
       -0.17397216 -0.33396015 0.17554082 -0.3600272
000190 9f 75 3f be 38 db a9 bd 12 77 25 3d 8a f8 37 bd
       -0.18697213 -0.08293766 0.040396757 -0.04491476
0001a0 d4 e0 a6 3e b2 6a 60 be af d6 cc 3e f6 2a 2c bf
       0.32593405 -0.21915701 0.4000754 -0.67253053
0001b0 06 9c 33 3c f2 12 48 be a5 1b 7a be 5c 9d 93 be
       0.010962492 -0.19538477 -0.24424608 -0.28830993
0001c0 e8 a1 80 bd a7 f7 75 be 20 25 da be aa a0 19 bf
       -0.06280881 -0.24020253 -0.4260645 -0.6001078
0001d0 9a 10 e0 3e f4 3f 61 bd 78 7b 12 be a7 53 43 be
       0.43762666 -0.05499263 -0.14304912 -0.1907488
0001e0 8b a7 b2 3d 84 07 12 3d 29 b9 63 be 08 78 41 be
       0.087233625 0.0356517 -0.22238602 -0.18893445
0001f0 3d 0d a9 bd f1 95 5b 3d a7 80 cd be e1 48 3e bf
       -0.08254478 0.053609792 -0.40137216 -0.74329954
000200 64 a8 6d 3e 1e 69 dd bd 40 93 64 3e 82 57 b8 be
       0.23208767 -0.10811065 0.22321796 -0.36004263
000210 22 ff ba 3d 37 29 97 3b 2c 7c 8e 3d 0a f8 3b 3d
       0.09130694 0.0046130675 0.06957278 0.045890845
000220 62 2d 06 3e 98 38 12 3e 2b 58 03 be af 23 a6 bd
       0.1310325 0.14279401 -0.12826602 -0.08112275
000230 fb bf 47 be fc eb 43 bd d9 f0 cb 3d e4 20 9d 3e
       -0.19506828 -0.047832474 0.099580474 0.30689156
000240 18 37 31 bd 31 39 72 be 62 57 44 3d f5 ad af 3c
       -0.043265432 -0.2365463 0.047934897 0.021445254
000250 ed 92 cc 3d ff 83 10 3e fc 68 4d 3d e6 bf 0b 3f
       0.09988961 0.14112853 0.05014895 0.5458969
000260 25 4d 53 3d 86 bc 0c 3e 88 b2 72 be f3 39 35 3e
       0.051587243 0.13743791 -0.23700917 0.17697887
000270 82 c2 08 3e 30 14 31 be 78 36 cb bc 19 5c b5 bb
       0.13355449 -0.17292857 -0.024806246 -0.0055346605
000280 a3 6e 79 3e 9f 84 08 3e 69 34 b3 bd 66 8d b1 bd
       0.24358611 0.13331841 -0.08750231 -0.08669548
000290 ca f9 c1 3d 2a 57 eb bd 1f 97 a8 3d d8 bb 81 3e
       0.094714716 -0.114912346 0.08231949 0.25338626
0002a0 4f f7 88 be 34 33 31 bd 22 7a dc bd 13 c3 8e be
       -0.2675118 -0.04326172 -0.107654825 -0.27883205
0002b0 e9 c6 04 3f 75 57 91 be f7 26 3e 3e 45 05 dd bb
       0.5186601 -0.28387037 0.18569551 -0.006745013
0002c0 97 ed 1c 3d 36 34 13 3d ef 3d 4e bd 12 89 a1 bd
       0.03831252 0.035938464 -0.050352033 -0.07887472
0002d0 9b 4f 07 3d c3 c1 f9 3c 02 2a 1e be 28 b9 bb bc
       0.033034902 0.0304879 -0.15445712 -0.022915438
0002e0 a9 60 85 3d 16 06 ce bc ce 39 0b 3e af 4a c1 3d
       0.06512577 -0.025149386 0.1359627 0.09438073
0002f0 d9 63 86 be dc b6 1a bd 10 9c 43 be 6e f8 79 3e
       -0.26248053 -0.037772045 -0.19102502 0.24411175
000300 b5 ae 03 bd a0 85 5f bd 63 ea 5d 3e ba 84 43 3e
       -0.032149035 -0.054570794 0.21671443 0.190936
000310 a8 24 bb 3d 73 93 a0 3d 70 01 5d bc 3b 38 da 3e
       0.09137851 0.07840624 -0.013489112 0.42621025
000320 29 48 ca 3c 95 db 30 3d 40 1f 93 3e 2f 95 32 be
       0.024692612 0.04317816 0.2873478 -0.17439722
000330 28 16 fd 3e 8a 5c 05 3f 47 6d 59 3e 1c 22 b4 bd
       0.49430966 0.5209433 0.21233092 -0.08795568
000340 e5 55 fb 3e 7f b4 87 3e d6 7c bd 3e 58 a4 19 3f
       0.4908897 0.26504895 0.37009305 0.60016394
000350 d5 1a 90 3e 4f e2 a6 3e 3f aa 40 3d 59 2a 20 bf
       0.2814547 0.32594535 0.04703736 -0.6256462
000360 70 64 62 be f3 ca b6 3e ba cc 65 be b7 71 2d 3e
       -0.22108626 0.35701713 -0.22441378 0.1693791
000370 40 58 1e 3d 76 ab bf 3e 00 3d 54 3e 69 a5 8d 3e
       0.03865838 0.37435502 0.20726395 0.2766526
000380 bd dc ee 3e d8 55 fb 3d 78 b3 77 bd 40 0d 57 be
       0.46652785 0.12272233 -0.06047389 -0.21001148
000390 fc 1c e5 bd d3 0a 90 bd 08 95 57 3e 83 91 09 3b
       -0.11187169 -0.070333146 0.21052945 0.0020991273
0003a0 d2 06 0c bf 76 c0 f9 3d e6 9f 25 bf 51 60 f1 3d
       -0.54697907 0.12194912 -0.6469711 0.11785949
0003b0 f3 4d 00 be 54 0f 08 3e 3e c5 dc 3d 80 1a 0e 3e
       -0.12529735 0.13287097 0.107798085 0.13877296
0003c0 c9 b1 59 3e 33 02 fe bc c9 f8 06 3f 80 bb ad be
       0.21259226 -0.031006908 0.52723366 -0.33932114
0003d0 2a 8f d1 be 1d 07 ca 3e f3 32 8f 3d 5b 7b f8 bd
       -0.40929538 0.39458552 0.0699214 -0.12132903
0003e0 bc 9b 74 3e 23 c8 32 3f 10 e0 56 3e 88 b5 53 be
       0.23887533 0.69836634 0.2098391 -0.20674717
0003f0 35 6a af 3d 00 75 91 3e 8e ac b6 3e 27 0f b3 3b
       0.08565179 0.28409576 0.35678524 0.005464453

rnn.weight_ih_l0_reverse f4 [256, 36]
000000 99 1d eb 3d 96 a0 bd 3d aa f6 6d bd 68 52 47 be
       0.11480255 0.09259145 -0.058096565 -0.19465029
000010 f3 43 65 be c7 9c 66 bd aa 7d 56 3e 1f 9f 2e 3e
       -0.22389202 -0.05630186 0.20946375 0.17052887
000020 0b 36 7b be 11 28 63 3e 46 3d be be 4d 57 2f be
       -0.24532335 0.22183253 -0.37156123 -0.17123146
000030 45 ae f9 3c 23 d6 02 bd 14 4e 46 3e ea 9b 2b 3e
       0.030478606 -0.031942498 0.19365722 0.16758695
000040 57 a3 37 be 7b f7 87 bc f4 b5 31 be fd a2 63 3d
       -0.17933403 -0.0165975 -0.17354566 0.05557536
000050 55 8d 77 3d d5 fa b9 3c 05 cc 4f 3e 91 fe 61 be
       0.06043752 0.022702614 0.20292671 -0.22069766
000060 e3 ee 8b 3d b6 11 17 be 83 d9 b8 3c eb 70 b1 bd
       0.068326734 -0.1475285 0.022564655 -0.086641155
000070 d1 fd d8 3d e0 0a 05 bd 8e f5 2f 3e fa b8 cb 3e
       0.10595287 -0.032481074 0.17183515 0.39789563
000080 89 ab c0 3e 84 4a ec 3d 1e 5b 98 3b 3a 16 59 bf
       0.3763087 0.1153765 0.004649534 -0.8479954
000090 bf d0 f4 3e 76 1f 56 be ec df f5 3d 7f 30 45 3d
       0.4781551 -0.20910439 0.120056 0.048141953
0000a0 54 df 12 3d 06 24 ba bd 24 96 c4 3d 60 e6 7e bd
       0.035857514 -0.09088902 0.095989496 -0.06223142
0000b0 93 26 a0 be 2a 69 34 bf fe 4a ff bd 59 e8 51 be
       -0.3127943 -0.7047297 -0.124654755 -0.2049879
0000c0 e0 4f b6 3d 83 65 21 3c 83 22 a5 be 0d 79 b0 3d
       0.08901954 0.009850862 -0.32252893 0.086168386
0000d0 96 2f 94 3e 54 15 81 be 64 4d 38 3f ec 3f 95 3e
       0.28942555 -0.25211585 0.7199309 0.2915033
0000e0 b5 fd 2c be 6d 11 94 be b3 e3 06 bd 9c b6 4c 3c
       -0.16893657 -0.28919545 -0.032931995 0.012494709
0000f0 ac 25 12 3e 7b c1 a5 3d a2 d9 31 bc 61 cd 73 be
       0.14272183 0.08093544 -0.01085511 -0.23808815
000100 97 f1 ce be d4 d8 4b 3e 1f 67 8d 3e 92 54 7e 3e
       -0.40418693 0.19906932 0.27617738 0.24836949
000110 72 d9 a7 be 9a b3 02 be 09 d7 bf bd c8 76 8e 3e
       -0.32783085 -0.12763825 -0.093671866 0.27824998
000120 0a 91 df 3d f2 80 c7 bd 73 59 f7 bc e3 44 18 bd
       0.10916336 -0.09741391 -0.03019402 -0.03717507
000130 dd 1b c5 3d 63 18 8c 3e 55 d7 a5 bd 61 b6 1c 3e
       0.09624455 0.27362356 -0.08097712 0.15303947
000140 5e 92 dd bc 88 15 07 bd bb 7f 16 bf d0 71 92 3e
       -0.027047332 -0.03297952 -0.5878865 0.28602457
000150 cd 97 bd 3a a7 6b 9f be ee 57 c9 3d 1d 19 9d 3e
       0.0014464796 -0.3113682 0.098312244 0.30683222
000160 fb f4 d0 3d 7f 5d 25 3e 9a a1 17 3e 6d 45 a4 3e
       0.10202976 0.16148947 0.1480774 0.32084218
000170 dd 6c 89 be 2d 87 0b bf 4d 6e 12 3f 39 00 a8 3c
       -0.2684087 -0.54503137 0.57199556 0.020507919
000180 41 65 90 bc 6f e5 fb bd 30 ca ae 3d ae 6f 99 bd
       -0.017626407 -0.1229962 0.08534658 -0.07492004
000190 6d 1a 8d 3e 30 44 17 bf 01 a5 a4 3e 17 80 5e 3d
       0.27559224 -0.5908842 0.32157138 0.054321375
0001a0 42 24 2b bf 81 5b 92 be 6c 29 78 be 09 46 3d 3f
       -0.668522 -0.28585437 -0.24234551 0.7393499
0001b0 3c ac 43 be 1b 30 19 be ec 0c 9f 3c 57 97 21 3e
       -0.19108671 -0.14959757 0.019415341 0.15780388
0001c0 0a cd 27 3e ac bb 47 3d ae 3f 1c 3d 14 f0 1c be
       0.1638681 0.048762962 0.038146667 -0.15325958
0001d0 4a 2f 9a bd f6 d2 14 bf b5 ac 6f 3d 3f a6 44 3e
       -0.07528551 -0.581344 0.058514316 0.19204043
0001e0 38 73 b7 be 9e 6f 98 3d c8 34 60 3e 53 2f 58 be
       -0.35830092 0.07443164 0.21895134 -0.21111803
0001f0 e0 e3 a9 3e 56 9b 21 be fa cf 2b 3e 01 7f 0f 3e
       0.33181667 -0.15781912 0.16778556 0.14013292
000200 57 20 25 be bc 6d d6 3e 7a b9 9f 3d 40 a6 2f be
       -0.16125618 0.41880596 0.07799049 -0.17153263
000210 ce 04 e0 3e 75 56 8b be 9c 29 07 3c 94 f3 2f 3e
       0.43753666 -0.272144 0.008249667 0.17182761
000220 b9 21 83 3e 5b 1a 8b be e4 9b 7f 3e 18 fc 69 3d
       0.25611666 -0.27168545 0.24961811 0.05712518
000230 55 f0 54 3d 06 09 2d 3e d2 be 5a 3e 31 59 e0 3d
       0.05198701 0.16897973 0.21361855 0.10954512
000240 60 2a 0d be e0 2f ca 3d 82 79 6d bd e3 ae 40 3c
       -0.13785696 0.09872413 -0.057977207 0.011760446
000250 26 0f 60 be 32 f2 b4 bd cd d4 fe 3c 56 bf 6b be
       -0.21880779 -0.088352576 0.03110733 -0.23022208
000260 6c b8 db 3e da 69 21 3e e5 09 30 be 2d 59 10 be
       0.4291414 0.15763035 -0.17191274 -0.14096518
000270 de b0 d4 3c e7 38 a0 be 01 a4 0a be 23 50 50 3e
       0.025963243 -0.31293413 -0.13539125 0.2034307
000280 75 11 e8 3c 3f 73 55 be 92 11 dc be bb 2e 8d bd
       0.028328637 -0.20844744 -0.42982155 -0.06893679
000290 dd 7e 9e bd 1a 21 6f 3d 30 37 88 be 77 71 7c be
       -0.07739041 0.058381177 -0.26604605 -0.24652658
0002a0 49 bd 18 3e 2e c3 12 3d 39 57 86 3e ea 35 0f bf
       0.14915957 0.03583067 0.2623842 -0.5594164
0002b0 31 5b ab be e0 4b c4 be c7 55 dc bd eb be 8d bd
       -0.3346801 -0.38339138 -0.10758548 -0.0692118
0002c0 31 20 26 3e a9 0b 94 3f 45 20 91 3f 25 f4 a1 bf
       0.16223218 1.1566058 1.1337973 -1.2652632
0002d0 8b f5 b6 bc 0d 39 05 3d 5d 1e 08 be 6c 7e 1f bb
       -0.02233388 0.03252511 -0.13292833 -0.0024336828
0002e0 87 a4 65 3e be 1f 10 3d 35 09 f2 be e6 e5 96 bd
       0.22426043 0.03518652 -0.4727265 -0.073680684
0002f0 85 41 d2 bd 05 ae e3 bd 0d f8 7f 3e d9 f2 ca 3c
       -0.10266403 -0.11117176 0.24996968 0.024774002
000300 74 b4 27 bd 80 97 fc be 4a c8 95 bd 24 35 20 be
       -0.040943578 -0.49334335 -0.07313593 -0.15645272
000310 38 fc 1a 3d 94 ca 1e be 6c 8f c5 bd 6e ac 48 3e
       0.03783819 -0.15506965 -0.09646496 0.19597027
000320 1e c8 65 be 23 6e b9 3e 23 ea d9 3d af fc 5a 3e
       -0.2243962 0.3621684 0.10640361 0.21385454
000330 ca fa 03 3e bd 2d 4b be 71 e9 21 bd 8c db 2d 3c
       0.12888637 -0.19841667 -0.039529268 0.010611426
000340 93 3a 94 be 0f d7 69 3e 8a 8f 5e be 3e fb 91 be
       -0.2895094 0.22835945 -0.21734443 -0.28511995
000350 33 69 b7 3e 0d 89 86 bf 93 75 8a bf 1c 2d 7b be
       0.35822448 -1.0510575 -1.0817131 -0.24528927
000360 d5 8c 03 bf 42 e6 0d 3f 2c 6e 1a 3e c5 ab a1 be
       -0.5138677 0.5542947 0.1508109 -0.31576362
000370 b9 de d3 3d ad 74 00 3f 7c 9f c1 be 90 1b 49 be
       0.10345215 0.50178033 -0.3781699 -0.1963942
000380 62 f9 08 bf 01 ae f9 3e f1 14 d2 bb 8a 1f af 3d
       -0.5350553 0.48765567 -0.006411188 0.085509375
000390 18 20 f8 be 28 3f f0 bd 9f 3c 88 3d 1e 87 8f be
       -0.48461986 -0.11730796 0.066521876 -0.28032774
0003a0 ab 29 70 be 5a 18 96 3d 18 94 b2 be 53 9c d0 bc
       -0.23453395 0.073288634 -0.34878612 -0.025465166
0003b0 1a f0 73 be c4 19 3f be 7e b3 a9 3e 53 a9 17 3e
       -0.2382206 -0.18662173 0.33144754 0.14810686
0003c0 12 47 81 3e a5 f1 22 bd 56 7f 29 be 41 44 0d 3e
       0.25249535 -0.03978123 -0.16552481 0.13795568
0003d0 3e 2d 62 3e 68 26 76 3e e3 4f 4e bd d4 5e 3a 3d
       0.22087571 0.24038088 -0.050369155 0.04550059
0003e0 94 a9 3d 3d 82 bd 9f 3f d1 50 a9 3f 6e 27 af bf
       0.0463043 1.2479708 1.3227788 -1.3683908
0003f0 8e 54 f3 be 56 29 e7 bd 6c 0d 34 3f 9e ad 02 3f
       -0.47525448 -0.11287181 0.7033298 0.5104617

rnn.weight_hh_l0_reverse f4 [256, 64]
000000 b9 5c 12 3f 48 be 4b bf 37 f4 bb be 61 71 3d 3f
       0.57172734 -0.7958722 -0.3670976 0.7400113
000010 34 ac 92 3e 7b 8e 0b 3f ed 92 98 be 37 82 22 3e
       0.28647006 0.5451428 -0.29799595 0.15869986
000020 d8 86 38 bf be 57 e3 be 30 0f 54 be ad 1d a0 be
       -0.72080755 -0.4440288 -0.20708919 -0.3127264
000030 60 ea 0a 3d 28 47 0d 3f 23 ab a1 3e e2 16 38 3d
       0.033914924 0.551867 0.3157588 0.044943698
000040 23 bc 91 bd 2f 84 4a 3f b5 57 fd be 00 81 40 3e
       -0.07115962 0.79107946 -0.49480978 0.1879921
000050 d4 16 45 3d a8 c2 17 3f d5 1e 6a 3e ac f1 a8 bb
       0.048117474 0.59281397 0.22863324 -0.0051557627
000060 1f f6 f1 3d 4b cb 6e bd bf 47 88 bd 71 bd 42 3e
       0.11814522 -0.058299344 -0.066543095 0.19017579
000070 6b cc a3 3b bd 6b 32 3e b4 63 fb be bb cb a8 3e
       0.0049987338 0.17423911 -0.49099505 0.32967934
000080 66 2c 01 3f ab a4 6e 3e d0 c8 22 be 67 a7 2f bf
       0.5045837 0.23305003 -0.15896916 -0.6861481
000090 40 a5 9e 3f ee 67 74 3e 98 d0 14 3f 1a 77 19 bc
       1.239418 0.23867771 0.5813079 -0.009366775
0000a0 4d 3f 2f 3f 90 2b e3 3d 22 c1 c4 be 1a a6 b4 3e
       0.68455964 0.11092293 -0.384286 0.35282975
0000b0 93 6c 04 be ba c3 95 be a1 60 28 3f d8 d1 ed bd
       -0.12932043 -0.2925089 0.65772444 -0.1161229
0000c0 f7 a5 60 3a 77 81 95 3d c0 3f 66 3e 46 1d 4c 3e
       0.00085696526 0.07300084 0.22485256 0.19933042
0000d0 0c 7d 1e 3f ec 08 41 bd 4d 71 bd 3d 46 9d 0e bf
       0.61909556 -0.04712765 0.09250126 -0.5570873
0000e0 30 2c 05 be d7 00 07 bf 6c 9b 3c be 4e 6e eb bd
       -0.13005137 -0.52735656 -0.18418664 -0.11495648
0000f0 0e 8e 48 be a8 52 bc 3e 48 91 14 3c d4 56 bd 3c
       -0.1958544 0.36781812 0.009067841 0.023112692
000100 5d 0c c0 be 92 71 6e be c8 90 95 3d be 13 62 bd
       -0.37509432 -0.23285511 0.073030055 -0.05519461
000110 ad b0 6a bf ef 46 3e be 5b a8 15 3f 79 7b 29 3e
       -0.91675836 -0.18581747 0.58460015 0.16551007
000120 20 3a 80 bd 42 b4 91 3d 07 11 0d 3c 42 21 c7 be
       -0.062610865 0.071144596 0.008610017 -0.3889256
000130 ce 2f 27 be 18 0b 7a 3e 5e 6d 7b bf 96 b5 07 be
       -0.1632683 0.24418294 -0.98213756 -0.13252863
000140 de 01 97 3e 46 97 05 3e 0c 77 d8 bb 9a 7d ca 3e
       0.29493612 0.13045987 -0.0066059884 0.3954895
000150 56 49 1b 3d c0 de 12 bf 08 f7 a5 3e e4 d5 58 be
       0.037911735 -0.5737114 0.32415032 -0.21175343
000160 cc a6 ba bd df 4a 0f 3f da e9 09 3f d3 c9 5a 3e
       -0.09113845 0.5597362 0.53872454 0.21366052
000170 50 6f c7 3b 62 20 ad 3e 96 a7 71 3e de 46 22 bf
       0.0060862675 0.3381377 0.23599085 -0.63389385
000180 5f 35 f3 bc 01 33 93 be 18 e4 ac be 73 19 81 be
       -0.029688535 -0.2874985 -0.33767772 -0.2521473
000190 24 df a5 be 0c 04 9e be c1 fc 73 be 87 64 0f 3d
       -0.32396805 -0.30862463 -0.23826887 0.03500798
0001a0 3f 76 1d 3e 57 b5 bf 3d cc c6 08 bd 33 93 43 3d
       0.15377139 0.0936076 -0.033392712 0.047747802
0001b0 e2 45 88 3d db de 5c bd 92 8d a1 3e d8 93 a0 3e
       0.06653954 -0.05392347 0.31553322 0.31362796
0001c0 af 05 bd be 4c 00 91 3c eb b1 0c bf 9e b3 ef 3c
       -0.369184 0.017700337 -0.5495898 0.029260453
0001d0 1e ee 95 3e 48 9f 14 3e c7 15 f4 3d f2 b5 67 be
       0.29283231 0.14513886 0.11918216 -0.22628
0001e0 ec 13 80 3f 25 27 ad be cf 5b 42 3e 37 32 b1 bd
       1.000608 -0.33818927 0.18980335 -0.08652156
0001f0 fd d8 74 bf 6a f4 04 3e 9f d4 10 be 15 8c 5c 3d
       -0.956436 0.12983862 -0.14143609 0.05384453
000200 d4 0f 82 be 48 cf 9f 3e 71 c0 81 3d eb 71 8a 3d
       -0.254027 0.3121283 0.063355334 0.067600094
000210 f3 d6 8e 3e dc 66 c2 3e 9c 6e 0d 3f ac b3 74 be
       0.27898368 0.379691 0.552469 -0.23896664
000220 93 fc 87 be e8 0e 81 3e 91 2d 7c 3d f1 06 0d bd
       -0.26559886 0.25206685 0.061566893 -0.034430448
000230 b8 e4 ed bc fd d7 c7 3e 56 83 cc be b6 75 a5 3e
       -0.029039726 0.39031973 -0.3994395 0.3231637
000240 60 f4 ab 3d 81 72 1c be 1d 31 86 be 4b 13 03 3d
       0.0839622 -0.15278055 -0.26209345 0.03200082
000250 a7 af ca bd dc 28 15 be 97 49 85 bc c0 e1 e2 bc
       -0.09896784 -0.14566368 -0.016270442 -0.027695537
000260 9d b1 1d 3f de 2c 5f 3e 08 91 c2 3d d3 d9 21 be
       0.6159914 0.21794459 0.09500319 -0.1580575
000270 9c 4c b8 3e f6 ac a0 3e 41 86 86 3e 0f f0 d0 3d
       0.35995948 0.3138196 0.26274303 0.102020375
000280 c5 b6 bb 3e 98 fb f7 3e 4e ad 2d bf 92 51 f5 3e
       0.3666288 0.48434138 -0.67842567 0.47913796
000290 a0 db 4c bf b6 9e 8e 3e db ea b6 bc 81 a5 89 be
       -0.8002262 0.27855462 -0.022328785 -0.26884082
0002a0 84 91 93 3e 38 e1 c3 be b5 1e 91 be 0e 2a 2f be
       0.28821957 -0.38257766 -0.2834374 -0.17105886
0002b0 98 a3 a7 3e 9f 5b 54 be ed d4 b4 3d 88 d4 ed be
       0.32742 -0.20738076 0.08829675 -0.4645121
0002c0 fe 85 08 be 96 77 c6 be 48 84 f4 3c bc b4 15 be
       -0.13332364 -0.38763112 0.029848233 -0.14619726
0002d0 03 38 96 3c c4 a3 2e 3d 66 c2 0e be 40 79 e2 3d
       0.018337255 0.042636648 -0.13941345 0.11058283
0002e0 ef 44 65 3e 24 b1 18 3f 30 f9 04 be 94 fb 78 3e
       0.22389577 0.59645295 -0.12985682 0.2431472
0002f0 86 f3 9a 3e 6d 9a 22 bf 2e c7 06 3f ad ce f9 be
       0.3026392 -0.63516885 0.52647674 -0.48790494
000300 2a c0 b4 bd e5 20 03 3f 35 2e bd 3e 7a 84 06 bf
       -0.08825715 0.5122207 0.36949316 -0.52545893
000310 7f 90 85 3e 35 17 90 bd 12 d6 dd bd 1c 70 1a bf
       0.26086804 -0.070356764 -0.10831846 -0.60327315
000320 f7 3c 12 3e 06 f7 a2 bf 5e e9 b3 be e8 ff 44 bf
       0.14281069 -1.2731636 -0.35138983 -0.7695298
000330 72 e9 db 3e 49 df c1 bc 36 dd 24 3e 0c b2 6f 3e
       0.42951542 -0.023666041 0.1610001 0.23407763
000340 fa 4e 1d 3e b1 85 37 3e 11 7b 10 be 3a 95 64 3e
       0.15362158 0.17922093 -0.14109446 0.2232255
000350 7f 42 e2 3e 58 60 6a 3d d1 c2 80 3e bb a2 15 3f
       0.44191357 0.057220787 0.25148633 0.5845143
000360 c1 3a 2e bf c2 10 bd 3e f2 b4 da 3d 80 64 a8 3f
       -0.680584 0.36926848 0.10679044 1.315567
000370 49 f6 30 3e 9b 24 91 3e 22 cf 8e 3e ff ea ba be
       0.1728145 0.2834824 0.27892405 -0.36507413
000380 3b 5a 5d 3e a7 70 66 be e3 6b 0b bf f0 03 89 3e
       0.21616451 -0.22503911 -0.544615 0.26760817
000390 b7 ba cb 3e b4 b3 f9 3e 4c db 0b 3f d6 c6 28 3f
       0.3979089 0.48769915 0.54631495 0.659284
0003a0 69 77 2f 3f fe 68 80 bd dc 2d e4 3d 76 fd 85 bd
       0.6854158 -0.06270026 0.111415595 -0.065424845
0003b0 be b9 2e 3d 67 25 95 bd 38 6d 9a 3e 1e 0e 00 be
       0.042657606 -0.072825246 0.30161452 -0.12505385
0003c0 e9 78 a3 be 54 43 9e bd 45 e7 64 3d bc 1d bd be
       -0.31928185 -0.077276856 0.05588462 -0.36936748
0003d0 6d 56 15 3f 9d 5b bb 3e 90 88 09 bf a3 b9 f4 3e
       0.58335 0.36593333 -0.53724 0.4779788
0003e0 d6 67 57 3f db 70 7d bf 77 85 77 be 9c 22 b1 be
       0.84142816 -0.9900033 -0.24172007 -0.34596717
0003f0 4b 18 18 3b fb 18 bd 3d 78 bf af bb ea 14 c5 3e
       0.002320784 0.0923328 -0.005363401 0.3849252
